DeepFP_gnn-main/src/model/deepfpPMOO.pt (torch, 425324 bytes, 16 tensors)

weight f4 [96, 9]
00000000: e7c5 203e 0cba f43d edc2 213c 7fd2 bc3e
00000010: bfd6 bc3e 46fa a13d dc64 9a3e d4c4 503e
00000020: 5a28 ce3e e600 6d3f 6b6f 05bf 8d0a 463e
00000030: eeb8 64be c930 95bf 19a4 0ebc 55e6 3e3e
00000040: 956b 0abe 916f b1be 0755 97be fb36 97be
00000050: 39af 983e d58a 4cbe 1836 8e3e 37dd 80be
00000060: cb28 d23c 86fa 6a3e a435 49bb b904 333c
00000070: 9e4a 933e 6d27 963e cf96 02be 4f9b f9be
00000080: 1375 7f3e a458 4d3d 3464 2dbe 55bd 61bd
00000090: 4f3e 843e 9fb7 083b e1a8 95be 4319 b6bc
000000a0: 63a0 5bbe 1e47 a5be 4d27 a4bd 329b 813e
000000b0: 0ab0 08bd f1f0 a5be 9c42 d53d dc37 b03e
000000c0: 5974 15be ba15 a5be 149b 2dbe 223c 50be
000000d0: 554d 11ba bbfe 7e3e d77f a5be f56a 1a3e
000000e0: 1b76 7fbe 9331 28be f6fd 863e 5da4 6fbe
000000f0: f395 973e a119 4abe 0197 bcbd ff78 523e
00000100: b660 50be 0f31 613e 6027 cb3d f0a4 0dbf
00000110: de2a 15be 6213 8bbe 9f56 f73d e779 083e
00000120: 20c8 8fbe 2441 153f 4393 75be 65c1 e2bd
00000130: c182 8cbd f85f 3abe e63c 59be 46c6 d1bc
00000140: 7587 93be 78a9 65be e682 903d 334d 9c3e
00000150: 8e46 843e 7607 153f c90d 1e3e dfea 943e
00000160: 4e97 02be aa4c 333e 92b8 b33e 55f2 50be
00000170: 2c12 7bbe d3e4 513d da23 b2bf be7b 62bd
00000180: fc8b 923e 72d6 023d b6a6 b8bd 9104 86be
00000190: f7a0 b4bd 536a 843d 4453 8d3e e514 8c3d
000001a0: 8871 8c3e ec53 97bd 81b9 6ebe 5579 853e
000001b0: b409 833e cabe 98be 31ce 05be 59c7 2abe
000001c0: 1be7 aebc 6c60 9ebe 281d 81be 90f2 8bbe
000001d0: 5124 7dbe 6fa0 9a3e fdb8 97be b1b5 91be
000001e0: 490f 5cbe 5b51 f03d 61b0 ce3d ffa9 cf3c
000001f0: 7215 a4bd 4b5c 983c 369b aabe 30dc 123e
00000200: 15b3 9a3e 7e51 803d 28da cbbd e0db 423e
00000210: 5bd3 99be fcee bf3d efeb e83e 140a 92be
00000220: 967f 3fbe e112 bf3d 5d7c 3bbe 927f 013e
00000230: 32b1 3c3d c03b 58be dda8 683e 28fe de3d
00000240: 3fef e43e 2f4a c6be 995f 433e da1f 3d3e
00000250: 59c2 78be 6e7a bb3d a579 ef3d 9021 77be
00000260: daf9 e23b 1ddd acbd e1b3 2e3e f6d4 6ebe
00000270: 015a cb3d c30a 3a3b b303 47be 3265 5fbe
00000280: 93ca 97be 9265 753e 8396 89be f032 afbd
00000290: 31ca 633e dc03 973e a772 153f 50b3 99bd
000002a0: 60cd 75be f250 99bc 3c05 80be fffa 083e
000002b0: f31d 7bbe b48a a73c d35b 4c3e 4f9e 69bf
000002c0: 8897 48bc cfd8 843d e7dc 523d 709e e73c
000002d0: f1eb 02be 81dc a3bd c87e 5e3d 42aa 7bbe
000002e0: 85e3 56be bb4e d8bd 7d17 d4bd 4148 1e3d
000002f0: 41cd e43e 1f4b 013e c5fc 963e d086 89be
00000300: 6bf0 1dbe d755 c43c 4b1b 80be 0cce adbe
00000310: 0d82 a53e a5d7 aabe f9df 4ebe 6f7e ed3c
00000320: ad6e ae3e 36d1 4abe 0a51 6cbe 8f27 8abe
00000330: 3209 91be 9ea8 0ebe c4ee 17be 0633 19be
00000340: c20f 3bbe b106 8bbe 2adb 023f 349d 8fbe
00000350: ad4f b83d 1640 d23d 0baf b0be 44ce 2e3f
00000360: 3062 94bd ee98 6b3e cc0f d23c e7f8 15be
00000370: b66b 18be 7298 1cbe 3147 0e3c f801 60be
00000380: 8a8f 92be 8471 0fbe f71c 9a3e 9a84 a4be
00000390: 78ec 9cbd d951 983e c4d4 84be 3ac0 a03e
000003a0: b8f3 2f3e 8c2f e93c cad9 c53d 5e97 a6be
000003b0: 8211 323d 3e3f 3abe 5298 40bc c40a 96be
000003c0: f0cc 89be 374e 6e3e b362 9b3e 3fb6 c73d
000003d0: f13d 81be ca1e e53d 4495 573d 4792 293e
000003e0: cffd 063e 1921 6fbd 728d 3c3e 553f 42be
000003f0: c110 9a3e 9d8d 9cbe 346f 81be 2d2a 863d
0.15700494 0.11949548 0.009873134 0.36879346 0.36882588 0.07909064 0.30155075 0.20387584
0.4026516 0.92579496 -0.52123135 0.19339962 -0.2233617 -1.1655513 -0.008706116 0.18642552
-0.13517602 -0.3465543 -0.29557058 -0.29534134 0.29821184 -0.19974835 0.27775645 -0.25168774
0.025654217 0.2294713 -0.0030702138 0.010926419 0.28767866 0.29326954 -0.12752841 -0.48751304
0.24947004 0.050133362 -0.16932756 -0.0551122 0.25828788 0.00208614 -0.29230407 -0.022228843
-0.21447901 -0.3228082 -0.080153085 0.25313717 -0.03337101 -0.32410386 0.10413095 0.34417617
-0.14595164 -0.3224314 -0.16953689 -0.20335439 -0.00055428344 0.2490186 -0.32324097 0.15079863
-0.24947397 -0.16425161 0.26365632 -0.23402543 0.2960659 -0.19736339 -0.09208489 0.20553969
-0.20349392 0.2199137 0.099196196 -0.553298 -0.14567134 -0.27163225 0.120770685 0.13327752
-0.2808237 0.5830252 -0.23981957 -0.11072043 -0.06860877 -0.18200672 -0.21214637 -0.02560724
-0.28814283 -0.22427928 0.07056217 0.30527648 0.2583508 0.5821451 0.15434946 0.29085442
-0.1275303 0.17509714 0.35101753 -0.20404942 -0.24518651 0.051243614 -1.3917191 -0.05529379
0.28622425 0.031942792 -0.090161726 -0.2617536 -0.08819764 0.06465592 0.2760259 0.06839923
0.27430367 -0.07389054 -0.23312952 0.26069131 0.2559334 -0.2983306 -0.13066937 -0.16677608
-0.021350434 -0.3093294 -0.25217557 -0.27333498 -0.24720885 0.30200526 -0.29633322 -0.28458932
-0.21490206 0.11734267 0.10092235 0.025349615 -0.08011903 0.018598696 -0.33321542 0.14341807
0.30214754 0.062655434 -0.099537194 0.19029188 -0.30044064 0.093717545 0.45492503 -0.28523314
-0.18701014 0.09329773 -0.1830916 0.1264632 0.046067424 -0.21116543 0.22720666 0.1088832
0.4471378 -0.38728473 0.19079436 0.18469182 -0.24292888 0.09154211 0.11693124 -0.24133897
0.0069267573 -0.084406115 0.17060806 -0.23323426 0.09929276 0.0028387762 -0.19435005 -0.21815947
-0.2964674 0.23964527 -0.26872644 -0.085546374 0.22245099 0.29495132 0.5837807 -0.07504904
-0.24004126 -0.018715356 -0.25003994 0.13376997 -0.24523143 0.020451881 0.19956903 -0.91257185
-0.012243159 0.064866655 0.0514802 0.028273791 -0.12785317 -0.08001042 0.054320127 -0.24576667
-0.2098523 -0.10561892 -0.103560425 0.038643125 0.44687846 0.12626313 0.29489723 -0.26860666
-0.15423743 0.023966713 -0.25020823 -0.33946264 0.32325783 -0.3336765 -0.20202626 0.028990952
0.34068814 -0.1980637 -0.23077789 -0.26983306 -0.28327328 -0.1393151 -0.14837176 -0.1496087
-0.1826773 -0.27153543 0.5111567 -0.28049624 0.08999572 0.1026613 -0.34508547 0.68283486
-0.0724529 0.23007557 0.025642298 -0.1464573 -0.14884838 -0.15292528 0.008683966 -0.21875751
-0.28625137 -0.14008147 0.30100223 -0.32132417 -0.0766229 0.29749945 -0.25943577 0.31396657
0.17182815 0.028465055 0.096606806 -0.3253736 0.043473728 -0.18188187 -0.011755066 -0.2930509
-0.26914167 0.23272024 0.3034874 0.097515576 -0.2524257 0.11187513 0.052632585 0.16559707
0.13182758 -0.058381174 0.18413332 -0.18969472 0.30090907 -0.30576792 -0.25280154 0.06551013

bias f4 [96]
00000000: 95fe 31be 1643 113f 8112 c03d 7684 e23d
00000010: c86d 84be 3cea d7bd 9ebb d03d 035d ac3d
00000020: 1de5 a33e c91b 1ebc 37c5 a43c cdba 9cbd
00000030: c85c 40bd caff 5a3e 6b17 73be 040b 84be
00000040: fd24 d13e 0a99 69be aa65 4e3e 0c38 db3e
00000050: 3dad d9be 99ac 03be 2e55 903e 483d 913e
00000060: accb 94be 1a50 3b3d ddc9 2a3e ff76 8abc
00000070: 80ac 22be 1d88 8bbe f076 2f3c c794 9f3e
00000080: ef28 6abe 8d6f c83e 3c8c fabd 72e8 263e
00000090: 60fc 883d 3ea1 7b3e 32d7 6cbe fd22 723e
000000a0: 1244 83be 23cb 723e 18b5 483d 0b56 d5bd
000000b0: 1e88 883e 8d12 ca3d a352 443e 5d26 7dbe
000000c0: e811 9fbe 4e65 89be 7e5f b03e 2d8f a7bd
000000d0: 4ded 2dbe 6770 993e aeaa d13d 4aa1 07bd
000000e0: ee72 bdbd ea4b ef3c bd8d 8bbd 934c 51bd
000000f0: 052f 15bd b838 3b3c edc5 22be 2ce5 253e
00000100: f0ce 04be b6ab e53d 3b6f 703d ae42 40be
00000110: 067b 5ebd 17a4 2bbe 45a1 bcbe 4cbb 9f3e
00000120: dcbf 873e ce0a dc3e 0b5f 16be f154 153e
00000130: 3177 013e 7ca5 3c3d b610 b43d 96d0 873e
00000140: 5a85 b03e 4434 1ebe e462 bd3d a047 9cbe
00000150: 57fa 9dbe aefc e83e 25b8 ec3d b0ef 823e
00000160: 9d56 4e3e d05d 58bd ef4f f63c c7af 133e
00000170: c45a d93c ffb3 a9be 9a40 94be 8b87 12be
-0.17382272 0.5674299 0.09378529 0.11060421 -0.25865006 -0.105427235 0.10192035 0.08416178
0.32010737 -0.009650179 0.02011357 -0.07652817 -0.046963483 0.21386638 -0.23739402 -0.25789654
0.40848532 -0.22812286 0.2015597 0.42816198 -0.42514983 -0.1285881 0.28189987 0.28367066
-0.2906164 0.045730688 0.16678567 -0.016902445 -0.15886116 -0.27252284 0.010709509 0.31168196
-0.22867177 0.39147606 -0.12233779 0.16299608 0.06688762 0.24573228 -0.23128965 0.2364616
-0.2563787 0.23710303 0.04900083 -0.10416802 0.2666635 0.098668195 0.19172148 -0.24721666
-0.3106835 -0.26835102 0.34447855 -0.081816055 -0.16985054 0.2996857 0.10237633 -0.0331128
-0.09250437 0.029211003 -0.06814144 -0.051098417 -0.036421794 0.011427097 -0.15895815 0.16200703
-0.12969565 0.11214392 0.058699828 -0.18775436 -0.054316543 -0.16761814 -0.3684179 0.31197584
0.26513565 0.42976993 -0.14684694 0.14583184 0.12643124 0.046056256 0.0879225 0.26526326
0.3447674 -0.15449625 0.092473775 -0.30523396 -0.30855057 0.4550528 0.1155856 0.25573492
0.20150228 -0.05282384 0.030067412 0.14422522 0.026532538 -0.3314514 -0.28955537 -0.14309518

weight f4 [1, 96, 96]
00000000: 3a5a 2cbd 1fee 63bc 076e 98bd 716e 56bd
00000010: d378 74bc 885f b83c e8e5 81bd d9cd 963d
00000020: f2e2 9bbd 31b0 a63d 655a 9cbd 0b7f fe3d
00000030: 38e0 8d3d 1a1a 54bd 6971 33bd 328c 2abe
00000040: b5e8 b3bd 86f8 0d3c 9de2 ad3c 273f 85bc
00000050: d6bf fe3d face 9b3d 8668 95bd 4f12 a33c
00000060: 8f14 9b3d ae79 ff3d b96d 213d 1bc6 33bd
00000070: e4df dd3d 3c9e 923d 0910 b3bc f840 79bd
00000080: 1b91 11bd b2a2 bf3d a1b1 f2bc 749a 7a3c
00000090: 6078 023d 8888 56bd 3ba3 8fbb 0334 ccbd
000000a0: 4d61 36bd ec77 b13d fb72 b13d 573b 813d
000000b0: e739 c0bd b841 a3bd 7506 633c 6dc8 48bd
000000c0: c3bf a83d 7dd7 8abc 2c6c 91bd 8b90 af3b
000000d0: 4e1e 843d f397 13bc c87f abbd a9ef d33d
000000e0: dbaf 043e 1918 843b a61a b5bd 3ff0 eebd
000000f0: 17b0 683d b82f 0bbd 01bd d9bb de7f ad3c
00000100: 70ac ff3c 5ce4 aa3d d84b 66bd b0f9 0e3e
00000110: 05bd 77bd df3a 16be 091a 8bbc 757c 6f3d
00000120: 407c ad3d 0836 e33d 21bf e03d fe67 8bbc
00000130: 1c97 8a3c 22bb d5bd fc99 86bc 8a92 91bd
00000140: b04e afbc cbb3 bb3d f47d 0f3c 3eed 353d
00000150: 89fe 323d 9e1a 4abd 651d 96bd 0f0b 1a3d
00000160: 0d7a 8bbd 9085 b43c 32b4 f73c 8046 a73d
00000170: 147f 803c 788c 09be 10d8 4cbc c1ef 223d
00000180: 5786 d7bd 3ca7 c1bd fd58 9fbd b279 eebc
00000190: e7f5 983d 7e9a 80bd 147a 203d 0440 2abe
000001a0: 7519 4abd d841 e73c c396 e8bd ac5d af3a
000001b0: a053 963d 5cc1 193e 10af 51bc 0266 3b3d
000001c0: 049e f2bd b824 75bd f81e 36bd 3e0c 2d3c
000001d0: a782 0abe cd50 19bd 5110 af3b ba21 c0bd
000001e0: a517 8ebb 0dbf 1fbd 82c4 dc3b 2f47 bcbd
000001f0: 60d1 09be bb69 a8be 8189 56bd 5f97 c33c
00000200: c3b0 633d 8c90 873b cddf 6fbe 3cdc 29be
00000210: 175b 43be 93b8 46be 94ed 1bbe c5ad 8b3d
00000220: 40b6 b33d d1a6 65bd ff86 fabc e2bb 50be
00000230: 50c2 d6bc be1c 97bd 4bf8 873c c5d2 1e3e
00000240: 9f4f 3d3d 93dc 353d c0cb 16be 14c2 11be
00000250: b1b2 41bd f9e0 24be a226 b739 5dd0 033d
00000260: ec7d c2bc 6c76 753c a5c0 24be ec56 4d3e
00000270: 0273 0fbe f45a 00be 1823 233e 4d61 e0bc
00000280: e3f5 cb3d 4076 64bd c273 363d 7ce9 a4bc
00000290: d4a3 0e3e 6dd8 a3bd 13bd fc3c ff89 afbd
000002a0: db50 39be 7f8a b3bd 139d 81bd 49ec 4fbd
000002b0: c4cf d33c c9cb 243e c0d0 0d3e 947e 0d3e
000002c0: 292b c33b 3af0 21be 589a 123d 4f26 efbc
000002d0: acc2 82bd 5e61 5cbe 0816 b93d e0b9 fa3d
000002e0: 920b c43d 4b44 b8bb efdb aebd 9de2 903d
000002f0: b025 f13c 8af7 b13b 5e61 b63c 3ac5 46be
00000300: 4f93 453d 2157 01be 1a67 c9bd 414b adbd
00000310: 4aa4 a93c 41a1 e2bc 130a df3c f46a aebd
00000320: b524 533c d953 96bd 0f4f 69bd 4991 bb3d
00000330: 42c9 9e3d d6c8 563b 373b aa3d 1a30 b03c
00000340: efc1 733d 2d33 963c d49e 613c 3d5b bf3d
00000350: 8d25 40bd 79b3 56bc e4d5 a33d 96c9 98bd
00000360: 1558 90bd dd22 e33d f7e4 9fbd 5eef 8fbd
00000370: c643 4a3a bfbd e43d 7578 dfbd dccd 1c3a
00000380: 2860 93bd 1e3e e33d 9a02 bc3d c256 8ebc
00000390: 30ee c5bc 121c 813d 8c49 3b3d e35b f0bc
000003a0: 4e7c 5ebd 9536 32bd a6b3 583d d7d5 e9bc
000003b0: 40ad f3bc 8d84 d93c 62ef 3cbd 5ebf 63bd
000003c0: d38f 0bbd 9913 16bd 5c41 bfbc 2a44 0dbd
000003d0: 34bd 933d 300a 14bd 1101 dcbc 8bbc e0bc
000003e0: e6b3 913b c604 93bc d55c 8ebd 234a 56bc
000003f0: 0d18 863d bf7d 52bd a53e 8ebd a9e3 28bd
-0.042078234 -0.013911753 -0.07442861 -0.05235142 -0.014921385 0.02250649 -0.06342679 0.07363481
-0.07611646 0.081390746 -0.07634429 0.12426575 0.06927532 -0.051782705 -0.04380933 -0.16655043
-0.0878462 0.00866521 0.021226222 -0.016265465 0.124389336 0.07607837 -0.07295327 0.019906191
0.075722806 0.124743804 0.03941128 -0.0438901 0.108337194 0.07159087 -0.021858232 -0.060852975
-0.035538774 0.093572035 -0.029625716 0.015295614 0.03185308 -0.0523763 -0.0043834723 -0.09970858
-0.044526387 0.086654514 0.08664509 0.06310146 -0.09386044 -0.07971519 0.01385652 -0.049019266
0.08239701 -0.016948456 -0.0710071 0.005357807 0.06451093 -0.0090083955 -0.08373982 0.10348446
0.12957709 0.004031193 -0.088429734 -0.11666917 0.056808557 -0.033981055 -0.0066448455 0.021179136
0.031210154 0.08344337 -0.056224674 0.13962436 -0.060482997 -0.14670895 -0.016980188 0.0584683
0.084709644 0.1109429 0.10973955 -0.01701736 0.016917758 -0.104360834 -0.016430847 -0.07108028
-0.021399826 0.09165152 0.008758057 0.044415705 0.043699775 -0.04934179 -0.07329825 0.037608203
-0.06810389 0.022036344 0.030237291 0.08167744 0.015685596 -0.13432491 -0.012502685 0.03977943
-0.1052367 -0.094557256 -0.07780645 -0.029110763 0.07468777 -0.06279467 0.039178923 -0.16625983
-0.049340684 0.028229639 -0.113568805 0.0013379357 0.07340169 0.15015167 -0.012798086 0.04575158
-0.11846545 -0.05984947 -0.044463128 0.010562001 -0.13526402 -0.037430573 0.0053425212 -0.09381433
-0.0043363147 -0.03900056 0.0067372927 -0.09193265 -0.13458776 -0.32893166 -0.052377228 0.02387589
0.055588495 0.0041371044 -0.23425217 -0.16587919 -0.19077717 -0.19406347 -0.15227348 0.06820253
0.08774996 -0.05606729 -0.03058195 -0.20384172 -0.026215702 -0.07378529 0.016597888 0.1551009
0.04621851 0.04439981 -0.14726162 -0.14234191 -0.047289554 -0.16101445 0.00034933264 0.032181133
-0.023741685 0.014981847 -0.16089113 0.2005269 -0.14008716 -0.12534696 0.15931356 -0.027390147
0.099590085 -0.055776834 0.04454399 -0.020130865 0.13929683 -0.08000264 0.030851876 -0.085712425
-0.1809725 -0.087666504 -0.06328788 -0.05076245 0.025855906 0.16093363 0.13849163 0.13817817
0.005956073 -0.15814295 0.035791725 -0.029193072 -0.06384787 -0.21521518 0.09037405 0.12242484
0.09572519 -0.0056233755 -0.08538043 0.07074473 0.029436916 0.0054311203 0.022263225 -0.19411173
0.048236188 -0.12630893 -0.09834118 -0.08461619 0.020708222 -0.027664782 0.027226483 -0.085164934
0.01288717 -0.073402114 -0.05696016 0.0915857 0.07753231 0.0032773516 0.083120756 0.021507312
0.05951112 0.01833495 0.013770778 0.09343574 -0.04691081 -0.013104313 0.07999781 -0.074603245
-0.0704805 0.11090634 -0.078073435 -0.070280775 0.00077157875 0.11169004 -0.10911647 0.0005981603
-0.07196075 0.11095832 0.09180184 -0.017375354 -0.024161428 0.06304182 0.045724437 -0.02934069
-0.054317765 -0.043509085 0.0529057 -0.02854435 -0.029745698 0.026552463 -0.04612673 -0.055602424
-0.03407271 -0.036639784 -0.023346595 -0.034488834 0.07213822 -0.036142528 -0.026855977 -0.027433654
0.0044464944 -0.017946612 -0.069513 -0.013079199 0.06547556 -0.051389452 -0.06945542 -0.04123274

weight_ih f4 [288, 96]
00000000: db21 c5bd 4d3c bdbd 1d78 b8bd c72d cf3c
00000010: 1e65 d0bd ba02 ac3d 3c7f 853b 85c8 82bd
00000020: 33cb 02bd d367 03bb 5ee8 a93d 1b7d 973d
00000030: 9cff b6bd 33df 2fbc 7b0e 683d bb20 ae3c
00000040: 89f2 c73d d45d 98bc 953f 1f3c 1739 9abd
00000050: d444 b0bc 0ac2 c43d 3b98 a03d 85b6 9c3d
00000060: fd0a 893c bc4c 9abc ef6e b0bd fe59 813b
00000070: 6df7 edbc 88bf 473d 0f2a 2d3d c26b 053d
00000080: d073 d83d 6c8d 5c3d d251 9dbd 9e98 acbd
00000090: 1722 d1bd 78fe 8a3d 98d9 b4bd 80a0 92bd
000000a0: 014e 43bc 3bad 03bd f677 6abd 1499 7abd
000000b0: ffb5 c6bd 70b0 b73a c9cb 91bd 816b f03c
000000c0: 54d7 91bd 792f ecbc d6a6 b63c 1b28 8bbd
000000d0: a18e b4bc 8816 283d 5fc1 82bd 93cf 633d
000000e0: d9f4 613d 6b26 09bd 3aa4 a03d 3b58 3f3d
000000f0: eba4 3c3d 16aa 053d 1d64 b5bd 13f7 993d
00000100: 93c2 b73c f034 cabc ebe2 aabd dada 5ebd
00000110: acaa bb3d 12ff 8dbd 02f2 cf3d 2b05 82bd
00000120: 29b5 8bbc 9249 e1bc c813 683d f643 b23b
00000130: 1ebc acbc 4e8d 8b3d 4f03 dd3c 9577 09bc
00000140: 768b febc 89c9 073d c486 3f3d 5fcf c4bc
00000150: 0f6d e63c 368c 1f3d cb23 b0bb d846 043b
00000160: 97cf fbbc 1ef8 0c3d 454e 863d dacd 84bd
00000170: 3fb9 92bd 170d 2abd 7b7d e33c 6f78 9fbd
00000180: 2108 2b3d 6590 93bd d924 c1bc 9f39 dfbd
00000190: 12e2 05bd 6c39 87bc a26a bbbd b9f7 6f3d
000001a0: 2207 8abd 277b 39bd 3187 203d 5407 8bbc
000001b0: d6f4 95bd ac48 f6bb d5c1 943c a0d5 f2bb
000001c0: 0047 183c ff59 a53d bf9a 9cbc 6c44 8ebc
000001d0: d428 e4bc a1ea 5cbd f093 74bd c5bf 673c
000001e0: b268 aa3d a57c 9abd 7d35 0f3b d6bd 813d
000001f0: fdf0 bc3d d382 853d 3bda 5dbd 7534 9abd
00000200: 1fee 1b3d b47c 1bbd 1b2d a8bd 5da0 43bc
00000210: fe2c fb3c f456 993d 6cb1 003d dfba 693d
00000220: 59af 853d 879c be3d d8f4 a5bd 6699 a7ba
00000230: cefa e0bd 67d1 83bc 326a 57bd 1496 d13c
00000240: 7649 b03c f0e8 b03d 09d5 15bd 8ac2 04be
00000250: ac21 3cbd 6143 8d3d 1ab4 a1bd 2b1d e3bd
00000260: 4a74 58bd 6821 ba3d c5c4 0c3d aad9 f33c
00000270: 8520 f4bb 26a2 a23d 72b9 7a3d 7617 e73c
00000280: 808a 9ebd 1ab4 993d 3803 cdbc 133a 91bd
00000290: e2cf d9bd f89b 48bd 44e2 90bd 2cfc 45bd
000002a0: b8f6 c4bc 4969 7f3d 98fd dfbd 24e7 423d
000002b0: df17 c43d 502d 943d e8f0 65bd cdef fabb
000002c0: dd1e 2abd 4a4c 8cbd e338 b5bd 97c7 013d
000002d0: 926b 83bd 17ec 85bd 1c82 d4bc 0154 ddbb
000002e0: 4054 043d c15d 903d 1440 dabd a9f4 a2bd
000002f0: 83a9 a63c 2771 46bd 6da3 8dbd 31a9 003e
00000300: 1d33 08bd f7ca 883d ff51 b5bd fb60 80bd
00000310: 4d52 77bd 7a47 35bd 1a01 b63d 911f 923c
00000320: 61f5 283d d130 273c 89e3 a33c d916 b8bd
00000330: b79e 933d 6347 d0bd d35a 10bd 065b 453c
00000340: 4d11 883d 71e8 c23d fffa c2bc f65d f2bc
00000350: bfde 2e3d cbb3 c7bc 5c84 0bbb f6fd c03d
00000360: 40cb 00bd 7971 47bd b827 88bc 2775 973d
00000370: 09ca 13bd c695 d63c 2f60 833c 7f19 dd3d
00000380: 6370 9e3c d539 0c3c 1217 2c3d 7e09 c3bd
00000390: 838e 0e3d 0a32 ae3b 57e2 e83d fb5e 7abd
000003a0: 8b70 87bd d0be c9bd 0fd8 afbd 4bfa 913d
000003b0: 2d83 7e3d bcf0 cabd 8c71 80bd 75fe 8d3d
000003c0: 45cb c63d db4d fd3c bfba d4bc bb94 323d
000003d0: f67b 2cbd 6569 923d 7398 09bd 4334 2b3d
000003e0: 91ae 903d c7fa 9cbd 73a3 ce3c c2fa 83bd
000003f0: e5e3 db3c e002 68bd 1be2 94bd 680c 773b
-0.09625598 -0.09240017 -0.09007285 0.025290383 -0.101755366 0.083989576 0.0040740054 -0.06385902
-0.031932067 -0.0020050898 0.08296274 0.07396909 -0.08935472 -0.010734367 0.056654435 0.021255841
0.09763057 -0.018599428 0.009719749 -0.0753042 -0.021517195 0.096073225 0.07841536 0.07652
0.016728872 -0.018835418 -0.08614909 0.0039474955 -0.029048646 0.048766643 0.04227644 0.03257347
0.105689645 0.053845808 -0.076816216 -0.08427547 -0.1021158 0.06786817 -0.08830565 -0.07159519
-0.011920453 -0.032147627 -0.05724331 -0.061181143 -0.09702682 0.0014014374 -0.07118947 0.029348137
-0.07121149 -0.02883123 0.02229635 -0.06794759 -0.022040667 0.041037112 -0.06384539 0.05561788
0.055165146 -0.033483904 0.07843824 0.046715003 0.046055716 0.03263291 -0.08856986 0.07517829
0.022431647 -0.024683446 -0.083440624 -0.054407932 0.091634125 -0.069334164 0.10153581 -0.06348642
-0.017054157 -0.027500901 0.05665949 0.0054402305 -0.021085795 0.06814061 0.026979117 -0.008390327
-0.03107236 0.033151183 0.046759382 -0.024024663 0.028128175 0.038952075 -0.0053753606 0.0020183828
-0.030738635 0.03441631 0.065578975 -0.064845756 -0.07164239 -0.04151639 0.027769795 -0.07786643
0.0417558 -0.072052754 -0.02357714 -0.10899662 -0.0326863 -0.016506873 -0.09151198 0.058585856
-0.06739642 -0.045283463 0.03919143 -0.016971268 -0.073220894 -0.0075159874 0.018158833 -0.00741072
0.0092942715 0.08073806 -0.019116757 -0.01736661 -0.0278515 -0.053934697 -0.059711397 0.0141448425
0.0832075 -0.07543305 0.002185195 0.063350365 0.09225652 0.06519093 -0.0541632 -0.07529537
0.038068887 -0.037960723 -0.08211728 -0.011940089 0.030661102 0.07487288 0.031419203 0.05706298
0.065275855 0.09307199 -0.08103341 -0.0012786805 -0.10985337 -0.016091062 -0.05259151 0.025584258
0.021519404 0.08638179 -0.03658012 -0.12964836 -0.04593055 0.06897617 -0.0789568 -0.11089548
-0.052845277 0.09088403 0.03436734 0.029766876 -0.0074501657 0.079410836 0.06121201 0.02820943
-0.077412605 0.07505055 -0.025025949 -0.07091155 -0.106353536 -0.04897687 -0.07074407 -0.048336193
-0.024043426 0.062356267 -0.10937041 0.047583714 0.095748655 0.07235205 -0.05613795 -0.007657981
-0.04153334 -0.068504885 -0.08848741 0.031684484 -0.06417002 -0.06539171 -0.025940947 -0.006754399
0.03230691 0.07049132 -0.10656753 -0.079568215 0.020344501 -0.048447754 -0.069159366 0.12564541
-0.03325187 0.066793375 -0.0885353 -0.062684976 -0.060381223 -0.04425762 0.08886929 0.017837318
0.041249637 0.01020451 0.020005958 -0.08988733 0.07208007 -0.10169866 -0.035242867 0.012045627
0.06643925 0.09516991 -0.023801325 -0.02958582 0.042692896 -0.024377724 -0.002128861 0.09423439
-0.031443834 -0.0486922 -0.016620502 0.07395392 -0.036081348 0.026194464 0.016037075 0.107958786
0.0193407 0.00855871 0.04201419 -0.09523295 0.03480388 0.0053160237 0.11371296 -0.061125737
-0.06613263 -0.09850848 -0.08586132 0.07127818 0.062136818 -0.09909198 -0.06271657 0.069332995
0.09706739 0.030920913 -0.025967954 0.04359887 -0.042110406 0.07149009 -0.033592653 0.041797888
0.07064546 -0.076650195 0.025224423 -0.06444313 0.026842067 -0.056643367 -0.07269689 0.0037696604

weight_hh f4 [288, 96]
00000000: a944 283d 231f 78bd 4c29 953d 33ba 6c3c
00000010: 2df7 95bc 4083 8ebc f143 babd 1994 fbbc
00000020: 5e50 d83c 09e3 1fbd be69 983d 48c9 39bd
00000030: df87 a8bd a260 a3bd 6599 fb3c 2adf 85bc
00000040: d0cb 73bd 0fd4 143d a29b c03d 4754 003c
00000050: b61d 8bbc 4f5a a9bd 65d2 bbbd 2ce7 3fbd
00000060: 4709 843d 1616 533d 20c3 c83c 5447 b53d
00000070: 2929 51bc debc 8d3d 0345 bcbd 66f8 c7bc
00000080: 5ae4 88bd 02a8 11bd 335e d33c 7626 2abd
00000090: 9ae2 cebd 653e a6bd 5d94 ae3d fd03 aabd
000000a0: 7d4a b13d 5d26 aa3d 094d 973d a612 133d
000000b0: 4fcc c8bc dccd aebd c8e0 57bc ee37 493c
000000c0: 1586 813d e537 b63c 6c67 263c 2867 12bd
000000d0: 3cd7 0a3d 86b1 b8bd 1fbf f7bc 4c4f a2bd
000000e0: 785a 0bbc 8ab1 733d ca9a 8abc c627 043c
000000f0: b985 2abd 3fde 223c 4a68 ac3d c14a 8bbd
00000100: 05e0 38bc bbc7 44bd 2b16 c0bc c3ee ce3b
00000110: 6823 a83d 9ac9 ab3d 7dfa 0cbd 1fb3 ca3b
00000120: 5a52 3bbc 89d2 4ebc 2bb8 b33d 2a9e 883d
00000130: 0ea8 aa3c 7fca 4a3d 49ff b23c 2a9e a33b
00000140: a0a3 9a3d edd3 8ebd 848b e0bd d547 0bbd
00000150: 3311 bebd 215f 15bd 3453 6dbc e0f3 fcb9
00000160: fc08 d8ba 119b 1c3d 7276 683d f0e6 1f3a
00000170: c20f 9b3d 7a87 c1bd 7900 5c3d 12e0 b93d
00000180: 7335 18bd 224f 843c 8231 b63d c5d4 f03d
00000190: 3a40 143b 80a0 d2bd 00bf 78bd 4763 86bd
000001a0: 2c52 073d 5d6d 01be 0f22 813d ca07 94bd
000001b0: 3f18 6c3d 1766 3f3d 440a 6abd 8ffb 39bc
000001c0: 7466 31b7 62b0 b2bd ad63 8b3d 1237 81bd
000001d0: da29 043e 173b 173d d6bc 713d 4700 09be
000001e0: 768c f83c 20b5 e1bd 2581 4b3c 7f3b a7bd
000001f0: aa7e 9ebc e84a a23d 8d1d 1a3d 84b3 68bd
00000200: cc1f a2bd ae15 0a3d acc1 37bc bc4f c7bd
00000210: 22e1 2cbe 498c 2dbe 8ddf 47bc 4e8c 023d
00000220: 2f51 77bb 5efd 89bd 7581 0ebe 80cf aa3d
00000230: d5c0 053c 6e3d 0e3d 6d7e f2bd 3c16 99bd
00000240: 4d9b cb3d d7dd 9cbb aaa8 653c 0d08 0b3d
00000250: 83a6 d0bc ca0d 1bbd c060 683c 1d96 cdbd
00000260: 3925 57bd bcdb 8fbd 1899 2c3d 7559 e6bd
00000270: d213 a5bd 7a0d dc3c 0dfb 9a3c 1d05 de3d
00000280: be29 90bd d829 d53c d9f0 4f3d 0e48 bfbd
00000290: 1580 73bd d233 eb3d 12c4 8ebd 99ef a3bd
000002a0: 7c31 f23d 685e 003e 98ef cabd daaa d0bc
000002b0: a970 32bc 5be4 083d dedd 1f3c 3635 1bbe
000002c0: 2fc3 213b 1d28 a0bd e03e b0bd 2159 62bd
000002d0: 6f8a 9c3d 75fe 133d 9c63 ae3d 5421 593d
000002e0: 7af2 043b b8ac 1cbe 6957 b4bc 9a9e e83c
000002f0: b8f9 5bbd d498 56bd 3f2f c93a 5811 1f3d
00000300: 14df a73d 54a5 e6bc 868c 993c 5fd2 d23d
00000310: b243 3fbd f3cd 7cbc b819 43bc 6fd5 b03d
00000320: c794 043d 85c2 95bc 1c8e 8f3c bccf ddbc
00000330: 43a8 0bbd 0494 a1bd 5dea 953d c3bc 92bc
00000340: 04a8 7d3d 0a6a 8bbc ae8a cdbd 5ea4 8fbd
00000350: 22b1 f73b 33f4 81bd c2eb 793d 05fd e8bd
00000360: f051 97bd aa2a 483d 5b52 b2bd 56f1 57bd
00000370: ee63 36bc 8338 91bd cac7 9e3d 436b 65bb
00000380: e9c9 0abd 4f82 eb3c e4f0 85bd 95e7 863d
00000390: a8dc 9d3d 19d4 57bc 9852 74bd a5fd 8ebc
000003a0: b738 503b 287e 8c3d 7920 843d a8d2 4bbd
000003b0: 8979 823d f420 7c3d 7f21 163d a391 36bd
000003c0: 6a3c ce3d 684c cebd 0a8d acbd e617 55bd
000003d0: a493 afbd 34b6 cc3d 13e1 053b 5803 86bd
000003e0: b35d 283b 02fd cb3d c0da 743d e68d e0bd
000003f0: 0d91 bf3d c8cd c9bd f295 da3b b5a3 00bc
0.041081104 -0.06057657 0.072832674 0.01444869 -0.01830634 -0.01739657 -0.0909499 -0.030710267
0.02640551 -0.039034877 0.07442044 -0.045357972 -0.0822904 -0.079774156 0.030712793 -0.016341764
-0.059520543 0.036335047 0.094046846 0.007832593 -0.01698194 -0.08269178 -0.09170989 -0.046851322
0.06447082 0.051534735 0.024507105 0.088514954 -0.012766161 0.06920789 -0.091928504 -0.024410438
-0.066841796 -0.035560615 0.025801754 -0.041540585 -0.101018146 -0.081173696 0.08524392 -0.08301542
0.08656786 0.083080985 0.0738774 0.035906456 -0.024511484 -0.08535358 -0.013176151 0.012281401
0.06324402 0.02224345 0.010156494 -0.03574291 0.03389667 -0.09018235 -0.0302425 -0.07925281
-0.008505456 0.059495486 -0.016919512 0.008066123 -0.041631434 0.009940683 0.08418329 -0.068013676
-0.011283879 -0.04804204 -0.02344807 0.0063150837 0.08209878 0.08388062 -0.03441857 0.0061859037
-0.011433208 -0.012623438 0.087753616 0.066707924 0.020832088 0.04950952 0.021850245 0.00499322
0.0755074 -0.069740154 -0.109641105 -0.03400405 -0.09280624 -0.036467675 -0.014485169 -0.00048246887
-0.001648217 0.03823382 0.056753583 0.0006099781 0.07571365 -0.09449668 0.05371139 0.09075941
-0.03716035 0.016151015 0.088961616 0.117593326 0.002262129 -0.10284519 -0.060729027 -0.065619044
0.03303735 -0.12639375 0.06305324 -0.07228048 0.05764031 0.04672822 -0.057138696 -0.01135148
-1.0573876e-05 -0.087250486 0.06806121 -0.06309332 0.1290659 0.036921587 0.05901798 -0.13379012
0.030340414 -0.11020875 0.012420927 -0.08165645 -0.019347508 0.079244435 0.037625838 -0.056811824
-0.07916221 0.03371208 -0.011215609 -0.09732005 -0.16882756 -0.16948046 -0.012199295 0.031872086
-0.0037737598 -0.06737779 -0.13916571 0.08340359 0.0081636505 0.034726553 -0.1184052 -0.07474944
0.09941731 -0.0047871876 0.014017263 0.033943225 -0.025470024 -0.037854947 0.014183223 -0.100383975
-0.052525733 -0.07024333 0.04213819 -0.11247531 -0.08060421 0.026861895 0.018918538 0.10840819
-0.07039212 0.02602093 0.0507668 -0.09339915 -0.05944832 0.11484493 -0.06970991 -0.08004684
0.11825845 0.12536013 -0.0990898 -0.025472093 -0.010891118 0.0334209 0.009757487 -0.15157017
0.002468299 -0.07820151 -0.086057425 -0.05526078 0.076435916 0.03613134 0.08515093 0.0530103
0.002028613 -0.15300262 -0.022014337 0.02839594 -0.053704947 -0.052391842 0.0015349163 0.0388349
0.08196846 -0.028155006 0.018743765 0.10294031 -0.04669542 -0.0154299615 -0.011907987 0.08634459
0.032368448 -0.01828123 0.017523818 -0.027076595 -0.034096014 -0.0788956 0.07320092 -0.017912274
0.06192781 -0.017018337 -0.10036217 -0.070137724 0.0075589577 -0.063454054 0.06101585 -0.11376385
-0.07388675 0.048868813 -0.08707114 -0.05272039 -0.0111322235 -0.07090857 0.077529505 -0.003500656
-0.033883963 0.02874866 -0.06540087 0.065871395 0.077081025 -0.013173127 -0.05964908 -0.017454932
0.0031772086 0.0686 0.06451506 -0.049761444 0.06370837 0.061554864 0.036653038 -0.044572484
0.10070117 -0.10073167 -0.084253386 -0.052024744 -0.08573082 0.0999569 0.0020428344 -0.065436065
0.0025690615 0.09960367 0.05977893 -0.10964565 0.09353838 -0.09853703 0.006670707 -0.007851531

bias_ih f4 [288]
00000000: 9bff ee3c 4573 8a3d 79ec 823d 0eca 9ebb
00000010: 3162 1e3d 6427 9a3c 74f8 8e3d b99b 27bd
00000020: b91a a2bd c006 543b 7a98 ca3d 6236 d5bc
00000030: 2398 c53d 717e 4b3d 25d6 bfbd a4a7 fc3c
00000040: d92e f53d 44e8 92bd 00fd 4bbd 8607 833d
00000050: 9ca4 b33d cfec 6b3d 3c71 4f3d 62c2 1c3e
00000060: 6512 46bd 1ea5 5b3d 971a 8a3d abc9 f13c
00000070: 6bce d1bd 2db9 4bbd f650 afbc 49d7 583c
00000080: b6be b3bd ca56 9c3d e1c9 cbbd f574 d53c
00000090: ae20 bf3d 1317 99bc 1656 1c3c ae59 91bc
000000a0: ea0f 15bd 410f 3dbd cde6 90bc 5623 81bd
000000b0: 79dd 92ba 98f6 043d cf5c 5ebc f796 d93d
000000c0: 4081 6dbd 1185 66bd 214b 4abd 8409 1cbd
000000d0: dca1 d43d 5b28 873d 23c4 bc3d d752 253d
000000e0: 0d79 2dbd 1cc0 febc c152 1abd 19d1 b4bd
000000f0: 74ed 3d3d b95a 7cbc d81a 723b 1ea1 b63c
00000100: a302 903d 3308 09bd ab9e 893c 6fac be3d
00000110: 7dca 99bd c71f 723d 80b3 5ebd df63 15bc
00000120: d979 953d 789b 0a3d 217b 0abd d10f c23d
00000130: 7212 a9bc 0cad b73b 4e44 8cbd b390 b43c
00000140: 50d9 403d d088 583d 1484 983d 8497 d43c
00000150: 30d7 b2bd b60f 3f3c b6a4 ff3c a63b 14bd
00000160: 554d be3d 062c 373d c6d4 cd3c 8fae bbbd
00000170: f423 3dbd 06cc 2bbd 3983 afbd eb5d 77bc
00000180: 1d19 0d3c c4cb 743d 7436 aabd 3808 16be
00000190: 1a16 a1bb 184d 74bd 06ac 193d c74b 0b3d
000001a0: d236 48bc f5b0 b53c e2c2 2a3e 8e4b 533d
000001b0: 213f fdbd 688a f6bc b437 aabd 8ebe 9bbd
000001c0: 9fd1 ef3d 802b b0bd 6436 08bd f360 00bd
000001d0: 2c13 6ebd ae41 713c 5d42 63bd 96c7 c63d
000001e0: 030c 2d3d 1416 e4bc 070f a73c 78af 9c3c
000001f0: aa85 c8bd 8193 08bd 61ec 07bd a25a f5bb
00000200: 9e03 9fbd 8387 6abd 1c67 44bd 94d7 d73c
00000210: dc3e 4fbb b2f6 c4bd ddeb f43d f9d0 7dbd
00000220: 6993 bebd a37f 19bd f901 9fbd 50cb 57bd
00000230: 50d7 003c 6637 053d 2287 6bbd 50a1 663d
00000240: 51f4 cfbd 1210 f6bd 81e7 92bc 5536 343d
00000250: 152a eabc 0fed 983e 4776 4b3d 9112 863d
00000260: 2d23 b83d 708c ff3b ea78 b33d 6494 c0bd
00000270: 122d f8bb ba82 17bd d5e1 82bd d925 fa3d
00000280: b248 febc fafc cf3d bc18 be3d cd3c 83bc
00000290: 74a2 30bd 8543 543c 61d9 c0bc 6ef6 40bd
000002a0: 6525 0bbd 65ac 29be 2e9d 60bd 09cf 4bbd
000002b0: 26b1 84bd 6260 35bc 5070 a63d b279 3d3d
000002c0: 740f 0a3d b844 a4bd e265 c13d 35b1 15bc
000002d0: b0e2 c1bc 17dd 723d 5174 1dbd 79a7 183d
000002e0: 3a60 51bd 3f80 78bc 4a78 3ebd 3f93 503d
000002f0: c20d 8cbc 42b2 d43d 4e6c 79bd c47a 1a3d
00000300: 55bf 163d ad14 3d3e 68d6 083e 51ed 223b
00000310: 20d3 c3bd 9cba 08be 6bca 97bd a467 8bbd
00000320: 1554 123d 57d9 23be 9fcc 5fbd 133d 22bd
00000330: 5a2c 1abb ae1f fa3d d534 ddbc 5f20 2dbc
00000340: 7cc0 e63d 962b e1bd 4b20 c6bd 781b b3bd
00000350: a884 61bd 8ca1 1d3c 374d a43c 706a df3b
00000360: ca45 d53c c910 e3bc 6167 02bd 7649 903d
00000370: 14c5 3fbd 6820 ecbd 1805 8fbd 396f 19be
00000380: e3f1 b73d 0cc7 6c3d 6e2f a2bd 4acf a93e
00000390: afc7 d4bc 202d 40be 348d 32bd adc7 3e3d
000003a0: c80a d0bd faab ecbd c7c3 aebd 2276 ac3d
000003b0: 68a6 91bd 5651 c33d be99 60bd 372b b73d
000003c0: 7f96 353e 60ac 66be 3bd0 05bd 8823 aa3c
000003d0: 2e8f f23d e2f5 393e aabb 3bbe d278 033b
000003e0: aa17 403d fa36 87ba cb8d 5dbd 345f 0cbe
000003f0: fe8d 53bd b1fe 97bc 8421 953c c791 313c
0.029174617 0.06760267 0.0639276 -0.004845864 0.03866786 0.018817611 0.069809824 -0.040919993
-0.07915253 0.0032352656 0.09892364 -0.026026908 0.096481584 0.04968113 -0.09367017 0.030841656
0.11971826 -0.071732074 -0.049801826 0.06397919 0.08771631 0.057598885 0.050645098 0.15308526
-0.048357386 0.053624265 0.06743353 0.029515108 -0.10244449 -0.049737144 -0.02140091 0.013234922
-0.087766096 0.07633741 -0.09950615 0.026056746 0.09332405 -0.01868776 0.009542009 -0.017742958
-0.03639213 -0.046157125 -0.01768818 -0.06305568 -0.001120492 0.032461733 -0.013571932 0.106244974
-0.05798459 -0.056279246 -0.049388055 -0.038095012 0.10382435 0.06599494 0.092170976 0.040362205
-0.04235177 -0.031097464 -0.037676577 -0.08828945 0.04636903 -0.015402489 0.003694227 0.022293624
0.07031753 -0.033455085 0.016799292 0.09310233 -0.07509325 0.059112336 -0.054370403 -0.009118049
0.07298631 0.033839673 -0.03380883 0.09475673 -0.020638678 0.0056053456 -0.068489656 0.022041654
0.047082245 0.05286485 0.07447067 0.025951155 -0.0873245 0.011661461 0.03120647 -0.036189698
0.09292094 0.04471972 0.025125872 -0.09164154 -0.046176866 -0.04194262 -0.085699506 -0.015098075
0.0086119445 0.05976464 -0.08311167 -0.14651573 -0.004915965 -0.059643835 0.03751757 0.034007814
-0.012220101 0.022179106 0.16675904 0.051585726 -0.123655565 -0.030095294 -0.08311406 -0.07604705
0.11709904 -0.08602047 -0.033254996 -0.031342458 -0.058123752 0.014725132 -0.05548321 0.09706037
0.042247783 -0.027842559 0.020392908 0.019126639 -0.097911194 -0.033343796 -0.033184413 -0.007487611
-0.07764362 -0.05725814 -0.047949895 0.026347913 -0.003162316 -0.09617366 0.1195905 -0.06196687
-0.0930546 -0.03747524 -0.07764048 -0.05268413 0.0078638345 0.032523535 -0.05750192 0.056306183
-0.101540215 -0.12014784 -0.017932655 0.043997128 -0.02858452 0.2986836 0.049673345 0.0654651
0.08991084 0.007798724 0.08763297 -0.09403303 -0.007573732 -0.036989905 -0.0639073 0.1221425
-0.031040523 0.10155673 0.092820615 -0.016020203 -0.043123677 0.012955551 -0.023541154 -0.047110014
-0.03397121 -0.1656967 -0.0548374 -0.04975799 -0.06479101 -0.011070343 0.08126891 0.046258636
0.033706143 -0.080209196 0.09443261 -0.009136488 -0.023667663 0.05929288 -0.038441006 0.03726909
-0.05111716 -0.015167295 -0.046501435 0.050921675 -0.017096404 0.103855625 -0.060894303 0.037714735
0.036803562 0.18464918 0.1336304 0.002486069 -0.09561753 -0.13352436 -0.07411655 -0.06806877
0.035724718 -0.16000877 -0.0546385 -0.039609026 -0.002352497 0.12213074 -0.027002731 -0.0105668
0.11267182 -0.109946415 -0.09674128 -0.087454736 -0.05505815 0.009621035 0.02005635 0.0068181083
0.026034255 -0.027717965 -0.03183687 0.070452616 -0.046818808 -0.115296185 -0.069833934 -0.14983834
0.08981683 0.057807013 -0.07919203 0.33165962 -0.025974123 -0.18767214 -0.043591693 0.046577144
-0.10158306 -0.115562394 -0.08533435 0.084209695 -0.071118176 0.09536998 -0.05483412 0.089437895
0.17733191 -0.22526693 -0.032669287 0.020768896 0.118437156 0.18160203 -0.18333307 0.0020061028
0.046897568 -0.0010316067 -0.054090302 -0.13708192 -0.051649086 -0.018554064 0.018204458 0.010837979

bias_hh f4 [288]
00000000: 373e 92bd 646a 933d 3209 9a3d ed10 883c
00000010: 2737 cbbd 5e8a b5bc 569e 9cbc b16d 55bd
00000020: ec5c 9d3d 623f 433d 0ba6 8d3d 1ffb 703d
00000030: 3ba6 243d 640f b9bc d113 cc3d 7791 ac3d
00000040: ada2 0cbd 3402 82bd 0395 ae3d ecb8 8ebc
00000050: f8f7 d73c 6f59 283d 1e6d e1bc 5730 ec3d
00000060: c919 3bbd 4c1e cd39 0e90 88bc 2681 9f3d
00000070: 2285 bebd 7519 ab3d ba15 88bd 398d 59bd
00000080: 5ffe 743d f411 b43c 1279 4d3d 4a9d 96bc
00000090: 9bf2 5cbc b739 c03d fd7e 843d 268f 553d
000000a0: d1ec d63d e8a7 8037 6dfe 6ebd 3804 99bc
000000b0: be06 c73c 2ae2 15bc 9466 ff3c e147 acbb
000000c0: a4a9 c1bc dfaa a53d cb61 a7ba 1e5c 043c
000000d0: 5920 603c 29fc 183d e43f 9c3d bb8f d93c
000000e0: ec9c bc3d 1a93 c6bd 84ec 2ebd 8e67 4f3d
000000f0: 8077 b2bd 6f18 ff3a 3ff9 80bd 6ca0 38bc
00000100: a311 99bc ed85 7bbc ebc2 3bbd d8b5 ce3d
00000110: 244a 133d 724c 973d 9c09 873d 46da a43d
00000120: 3308 1d3e a420 8b3d 3489 873d 07df e6bc
00000130: 98be 08bd fdb1 45bd 8d68 b83c f645 b63d
00000140: b502 523d 568d 96bd e0d2 3f3c 2865 aabd
00000150: ad66 53bc c2e8 b2bd 9e25 85bd ab1d c33b
00000160: 9eb9 0bbd 2ed8 f03d 514f 02bd 75fb b83d
00000170: cb0e 513d f4f3 b13d fd75 3bbd 902e f53c
00000180: 43f8 b2bd da70 583c 4185 bcbd dcc2 f6bd
00000190: a32e 80bb 69f3 c23d 59c0 613d 9432 823d
000001a0: d47a 3d3d d891 93bd abbf c1bb 50ac 08bd
000001b0: d333 d0bc a05c 5dbc 2590 913d 69c7 8abd
000001c0: b398 9abd 50ba 183a 83a6 e5bd b0b5 d9bd
000001d0: 2631 3b3d b492 98bc 0da4 b23d 7114 9abd
000001e0: 3d9b c8bd 772c 343c dc90 a0bd b1b0 b53c
000001f0: 2952 b03b 5be5 973c 83ce 94bc b4ee fbbd
00000200: 694b a2bd 26da 033e 70fa adbd 2e45 9e3d
00000210: 1e65 6bbd f2dd ebbc 6720 2e3d 08f2 b53d
00000220: 471d 603c d356 21bd 8edd 933d 48ac 3cbc
00000230: 1c0d 2bbd 8f2c 5bbd 18d8 2ebd ce54 293d
00000240: 2644 fb3b c5a3 33bd 21fc 77bd fc9e cdbd
00000250: 25c9 293d 6ec0 863e 018e b23d 80e2 18bd
00000260: 9150 903d 2d14 da3c 415e 843c 4b29 b5bc
00000270: 9434 213d 4e59 893c f27f 54bc 2c9c e73d
00000280: 608e 083e 548e afbd 5a67 823d 8021 073d
00000290: 9079 a6bd 606c a93d d3a4 b53d 8508 5cbd
000002a0: 7494 2c3d 0cd6 1abe f2b1 e6bd ac97 fdbc
000002b0: 0ffd 15bd df52 cbbd 4e55 b3bd 45cf ae3d
000002c0: 9528 803c 2854 1e3d 92bf 113e c0ca ab3d
000002d0: 8a24 a33d 37dc 22bd f825 6b3d 295e c13c
000002e0: a185 a5bb e4cc 1e3d 7f39 1b3d a0bf 1f3d
000002f0: 98ff 203d 6e31 84bd 8a6d 82bd 49f1 48bd
00000300: a804 493d 2bda d2bb 9c62 0d3d 8cd3 86bc
00000310: 7a4e babd d4e2 7d3d 19ea ff3c ed7b be3d
00000320: 2981 cbbd 2f7d 9bbd 7db6 8b3d 2f18 bcbb
00000330: 6e7d d93b f6cd 6fbc 6812 27bd 5fe6 4f3d
00000340: a261 24bd 2208 9c3c dac9 05be 5cb8 45bd
00000350: 71c0 783d 6fc3 543c 6740 e63c 7533 57bc
00000360: e8e8 49bd db13 8cbd f066 b6bd b375 793d
00000370: c44e 00ba 652c a83c 1c51 9cbd 811c cbbd
00000380: 7c42 ce3d 285d de3d 176d 17bd 0eb8 6b3e
00000390: 1908 9b3b eb8a 94bd 6391 703c 9d2a c73d
000003a0: 873b 593d 3410 f3bc 8a55 febc c595 3a3d
000003b0: ab0e b63b 2d9e d53b 45d2 333d 8132 14bc
000003c0: 7dd9 583d e48b afbc 4e9a 68bd b30e 1d3e
000003d0: fd9a a0bc 1068 963d 109f 03be fb4c d93d
000003e0: 1e39 813c f30a 85bd 6293 713d 4295 ddbd
000003f0: 8182 953d 31d2 153d fdac b9bd 180e b0bd
-0.07140773 0.07198027 0.07521285 0.016609633 -0.09922629 -0.022160705 -0.01911847 -0.052106563
0.07683739 0.04766787 0.06916436 0.058833238 0.040197592 -0.022590347 0.09964717 0.08426183
-0.034334827 -0.063480765 0.085245155 -0.017422162 0.026363358 0.041100916 -0.027517851 0.115326576
-0.045678888 0.0003912322 -0.016670253 0.07788305 -0.09302737 0.08354465 -0.06644769 -0.053113196
0.0598129 0.021981217 0.05016429 -0.018385548 -0.013485576 0.09386008 0.064695336 0.05213847
0.10494388 1.5336977e-05 -0.058348108 -0.01867877 0.024295207 -0.00914816 0.031176843 -0.005257592
-0.023640461 0.08089232 -0.0012770233 0.008078603 0.013679587 0.037349854 0.07629374 0.026557794
0.09209618 -0.09696026 -0.042706028 0.050635867 -0.08714199 0.0019462238 -0.0629754 -0.011268716
-0.018685168 -0.015351755 -0.045840185 0.10093278 0.035959378 0.07387628 0.0659363 0.08049445
0.15335159 0.06793335 0.06617966 -0.02818252 -0.03338489 -0.048265446 0.022510791 0.08900063
0.051272113 -0.073511764 0.011707991 -0.08320075 -0.012902898 -0.08735801 -0.065013155 0.0059544644
-0.034112565 0.11759983 -0.031813923 0.090323366 0.0510395 0.086891085 -0.04576682 0.02992943
-0.087387584 0.0132105 -0.09205104 -0.12048885 -0.0039118095 0.09519083 0.055115078 0.06357303
0.046259716 -0.07205552 -0.005912741 -0.033367455 -0.025415337 -0.013510853 0.071075715 -0.06776316
-0.07548656 0.00058261026 -0.112134 -0.10630357 0.04570117 -0.018624641 0.087226965 -0.0752343
-0.09795234 0.010996929 -0.0784013 0.02217898 0.005380888 0.018541982 -0.018164879 -0.123013884
-0.079245396 0.12876186 -0.08495033 0.07728039 -0.05746948 -0.028792355 0.04251137 0.088840544
0.013678855 -0.039389443 0.072199926 -0.011515684 -0.04176055 -0.05350929 -0.04268655 0.04134064
0.007668036 -0.043857355 -0.060543183 -0.100400895 0.041451592 0.26318687 0.08718491 -0.037325382
0.07046617 0.026620949 0.016158225 -0.022114417 0.039356783 0.016766217 -0.012969958 0.11309084
0.13335562 -0.08572069 0.06367369 0.032990932 -0.08128655 0.08272624 0.08869328 -0.053719062
0.042133763 -0.15120715 -0.11264409 -0.030956112 -0.03661829 -0.09927916 -0.08756505 0.08535627
0.015644351 0.038654476 0.14233235 0.08388281 0.07965954 -0.039760794 0.057409257 0.02360447
-0.00505133 0.038769618 0.03789663 0.039001107 0.039306253 -0.064547405 -0.06368549 -0.049058232
0.049076706 -0.006434699 0.03451787 -0.016458295 -0.090969995 0.0619839 0.031239556 0.09300981
-0.09936745 -0.07592236 0.06821916 -0.0057401876 0.006637267 -0.014636507 -0.040789038 0.05075681
-0.040132172 0.019046847 -0.13065282 -0.048271522 0.0607304 0.012986048 0.028106881 -0.013134827
-0.049294382 -0.06839725 -0.089063525 0.060903262 -0.00048945495 0.020528981 -0.07632658 -0.09917546
0.10071275 0.10857612 -0.03696927 0.2301943 0.00473119 -0.07253059 0.0146831 0.09724925
0.053035285 -0.029670812 -0.031046648 0.045552988 0.005555948 0.0065191 0.0439017 -0.009045244
0.052941788 -0.02142901 -0.05678778 0.15337639 -0.019605154 0.07344067 -0.12853646 0.10610386
0.015774306 -0.06496229 0.058978446 -0.10819484 0.07300282 0.036577407 -0.09066198 -0.08596438

weight f4 [96, 192]
00000000: 8cd0 55bd dc88 4d3c c167 18bd 2e4e 5bbc
00000010: cefb 1e3d 50e7 2cbd 7141 acbc 847e 2f3d
00000020: f5eb 1d3d 4442 963b c3e3 6e3b 1f79 163d
00000030: 2d89 8a3d 975e 933d 5c35 2d3d 23d9 2ebd
00000040: 3ca4 fcbb 7199 58bd c41e 5abb 5db0 db3c
00000050: 2141 d8bb 3118 0dbd d9f7 4b3d a127 abbc
00000060: e860 7ebd b710 583d 67bb 7f3d aa1e 5b3d
00000070: 93e1 8c3c 8dab 8c3c 25c4 e3bc 5b1c 8c3d
00000080: 32a4 e0bc c479 ba3c fcf8 033d 229d 6e3d
00000090: 1bdb 433d 1be4 903d d076 b1bb 27cf 383d
000000a0: 862a 92bd 8479 923d d15c fbbc 7a75 233d
000000b0: 8d4b 5bbc 1b22 853d e141 49bd e6cf e23c
000000c0: 3e59 163b b612 5a3d e043 54bc 4da7 0cbd
000000d0: c79d 90bd 2f49 8b3d 9f81 74bd 65c7 3dbd
000000e0: ea35 ba3c 75ba 0fbd 5991 713a 9ccb 11bc
000000f0: afe2 a93c adf9 3c3d a5d5 453d 532f 34bd
00000100: 637e 883d 71e2 933d a7b7 f83c ba9b b7bc
00000110: 4f5a 903c df84 6fbd c6c7 78bd 46ea 793d
00000120: e728 19bd 9590 a33c be47 08bd 4d67 f83c
00000130: 12b3 bd3c 2104 8ebd 088e adbc 6cc4 5abd
00000140: 363e b53c 8b31 813d a3d0 04bd 8e5f cabc
00000150: bbee 90bd e14f 2c3c 6ef9 8c3d b129 83bd
00000160: 3ec2 ccbc 724f 06bc f8e1 57bc 2cc1 273d
00000170: 7488 42bd ba86 093c 6f83 7dbd 8f80 983c
00000180: 005c 90bc 9e58 8a3d ed76 c53c 0c05 803d
00000190: 3d82 5dbd 6311 843d 87be 823d df06 18bd
000001a0: da0c 71bc d7c2 3ebc 5d5a d4bc 3ebb 83bc
000001b0: 2d5c 1a3d 44fd 3fbd d5ca d2bc 80ba 823c
000001c0: 6640 fd3c 0ec9 c53c 6877 c9bc fa47 6b3c
000001d0: 21fd 4abd 9062 833d 9f3f 843d ecf4 a73c
000001e0: bf3a d8bc 1a6f 363d c4ce 313d 35c4 88bd
000001f0: efa0 313d a44a c33c eac6 42bb 205b 4a3d
00000200: 72c3 c13c de58 1fbc 90e0 5b3d ea24 a83a
00000210: 0da4 213d 78a0 7f3d 700a 2d3c 1bde debc
00000220: 45a6 053d 6b30 89bd 0a9a 90bd 8d9e ca3c
00000230: 14cc 25bd 4f43 233d 9d6b 63bd 4453 f63b
00000240: 3104 823d 26c3 fabc 1d55 bf3c 5fe6 513c
00000250: 8cc3 01bd 4309 ae3c 83ae 27bd 5c05 103d
00000260: 0522 33bd aeb5 39bd 093b cfbb afff 793c
00000270: f297 3e3d 7b22 8ebd 5b5a 473d c9f3 f13b
00000280: 9d3c 75bd eea8 d83c 140d bd3c f8d7 2c3c
00000290: 999e 9aba 0a46 31bd 76af febc a874 053d
000002a0: 7366 003d 67a4 653d 03ac 4a3d 0ab1 913d
000002b0: 9298 8cbc c916 65bd 814d 09bd 2f09 953c
000002c0: d610 17bd 805d 95bc 0bd4 183d 71b4 c5bb
000002d0: d2ee d0bb 3dd9 02bd fc1e 883d 0182 903d
000002e0: 27c3 803d bf11 2dbb 87f3 973d 70fe 0abc
000002f0: b927 f5bc 1ea8 29bc 7a70 983d cc11 a6bd
00000300: 14c6 62bd 12b5 763d 1f29 f93c 3d78 263c
00000310: 987e 563d 70e9 8dbd 040e dd3c c68b d13c
00000320: 7d01 b73b 3645 fb3c 36ac 71bd 8b17 253c
00000330: 1223 3bbc 68b4 e7bc 31cd d8bc 4d81 3c3d
00000340: d042 e9bb 83c8 8f3d dfc1 d03c fa32 693b
00000350: 6b8c 7f3d e59a 823c 216e 1bbd 9cc1 9dbc
00000360: 5201 c33c 5d87 a23b 0e4a 423c e176 5a3d
00000370: d805 f03c 0668 2bbc 011d 523c a540 17bb
00000380: 43c8 4c3d 0767 243d f830 7dbd 2b1d 613d
00000390: 707d e1bc 9381 86bd 9d59 55bd 196a 773b
000003a0: 662b 06bd 5d28 5ebd 600a c2bc 62f6 10bd
000003b0: 7d96 6a3d f4ee 2ebc 5f13 403d b890 743d
000003c0: 9d33 aebc be35 523c e6d7 343d 291f 3c3c
000003d0: a3e2 8f3d 5059 6abd 7101 0fbc 11be 05bd
000003e0: e96f 8bbd 794a 5cbd b1d4 86bd c281 62bd
000003f0: e6a0 40bc 8d3b 6e3d d880 063d d994 96bc
-0.05220084 0.012544837 -0.037208322 -0.013385339 0.03881436 -0.042212784 -0.021027299 0.042845264
0.038555104 0.004585536 0.0036451675 0.036736604 0.067644455 0.07195776 0.042287216 -0.042687546
-0.007710008 -0.052880708 -0.0033282498 0.026817495 -0.006599561 -0.0344469 0.049796913 -0.02089292
-0.062104136 0.052750316 0.06243458 0.05349604 0.017197406 0.017171646 -0.02780349 0.06841346
-0.027422044 0.02276314 0.032219872 0.058255322 0.047816377 0.07074758 -0.005415775 0.04511943
-0.07137017 0.071520835 -0.030683907 0.039906956 -0.013384712 0.06500646 -0.049135093 0.027687024
0.0022941376 0.0532405 -0.012955636 -0.034339238 -0.07061344 0.06801068 -0.05969393 -0.046332736
0.022730786 -0.03508993 0.0009215079 -0.008898642 0.020737974 0.046136547 0.04829945 -0.043990444
0.06664731 0.07220925 0.03036101 -0.022413123 0.017621187 -0.058476325 -0.060737394 0.061014436
-0.037392523 0.019966403 -0.033271544 0.030322695 0.023156676 -0.06934381 -0.02118589 -0.05340998
0.022124391 0.06308278 -0.032425534 -0.024703767 -0.07076784 0.0105170915 0.068835124 -0.064044364
-0.024994966 -0.008197652 -0.013176434 0.040955707 -0.047493413 0.008393938 -0.061892923 0.018615989
-0.017621994 0.06755184 0.02410456 0.062509626 -0.054079283 0.06448629 0.063839965 -0.037115928
-0.014712537 -0.011643133 -0.025921995 -0.016080495 0.037685562 -0.046872392 -0.025731483 0.01595807
0.030914497 0.024143722 -0.02459307 0.014360422 -0.04955781 0.06415284 0.06457447 0.02050253
-0.0263952 0.04453955 0.043410078 -0.066780485 0.04336637 0.023839302 -0.0029720613 0.04940331
0.023652766 -0.009725777 0.053680956 0.0012828384 0.03946309 0.062408894 0.0105615705 -0.027205518
0.03262927 -0.06698688 -0.070606306 0.024733806 -0.040477827 0.039859112 -0.05552255 0.0075172503
0.06348456 -0.030610632 0.023356015 0.012811272 -0.03168063 0.02124465 -0.04093791 0.03516136
-0.043733615 -0.04533928 -0.006324176 0.015258714 0.046531625 -0.069401704 0.048670154 0.007383798
-0.05987226 0.02644774 0.023077525 0.010549538 -0.0011796533 -0.043279685 -0.031089526 0.032581955
0.031347703 0.05606499 0.04948045 0.07113846 -0.017162595 -0.055929933 -0.03352118 0.018192856
-0.03688129 -0.01823306 0.037311595 -0.006033473 -0.006376126 -0.031945456 0.06646535 0.07056046
0.06287222 -0.0026408283 0.07419496 -0.008483514 -0.029926168 -0.010355024 0.07443328 -0.08108863
-0.055364683 0.060231276 0.030415116 0.010160503 0.052366823 -0.0692929 0.026984222 0.025579344
0.005584894 0.03067265 -0.059002124 0.010076414 -0.011421936 -0.028284267 -0.02646503 0.04602175
-0.0071185604 0.070206665 0.02548307 0.0035583363 0.062389772 0.015943 -0.037946824 -0.01925736
0.02380434 0.004959984 0.011858476 0.053336028 0.029299662 -0.010461813 0.012824298 -0.0023079303
0.049995672 0.040137317 -0.06181428 0.054959457 -0.027525634 -0.06567683 -0.052087415 0.0037752448
-0.03275623 -0.054237712 -0.023686588 -0.03539122 0.057272423 -0.010677088 0.046893474 0.059708327
-0.021264846 0.012830196 0.04415121 0.011482039 0.070256494 -0.05721408 -0.008728371 -0.032651965
-0.068084545 -0.05378196 -0.065835364 -0.055299528 -0.011757111 0.05816226 0.03283772 -0.018381523

bias f4 [96]
00000000: 788f 3ebd 5759 07bc d130 12bc 898c be3b
00000010: 0610 67bd e65f 7d3d 934b 2d3d 45d5 b0bc
00000020: e822 8e3d 4f40 e638 184a 18bd 8948 8bbd
00000030: b96e febc 9f59 6a3c 388a 2d3d a446 45bd
00000040: ac66 71bc 2da2 1bbd faa9 d93b ba4a 0e3d
00000050: e4ec 4a3d 1ff8 883d 6e3b 89bd b539 67bd
00000060: 6320 173c b1a9 903d 6a65 ca3b 8056 8e3d
00000070: 8e7d 0bbd c419 853d 59f2 2a3b 6c54 743d
00000080: 6e0c 1abd d390 6abd 49bc 29bd bf5e 6439
00000090: 88a9 aa3c fb62 17bd 95a4 01bd fc42 83bd
000000a0: 83d8 1abd e054 2e3c da8d c8bb 6f8b 9a3c
000000b0: ccd2 8c3d e704 553c 86ea f5ba 1a57 60bd
000000c0: 311f 893c 6319 46bc 4b84 153d 4055 923d
000000d0: 27cc 2d3d f00e 773d 3ac2 f93c 0b66 86bc
000000e0: 896f 99bb 5db5 123d 3412 cd3c 2800 7dbd
000000f0: 8718 aa3c 37be bdbc 6ea5 473d 8904 733d
00000100: aa4b 58bd 4e3a 8bbd bffd 69bb 1c9c 493d
00000110: 19f5 6e3c 0c12 313c 912d 5b3a 9c3c 483d
00000120: 6a58 ea3b d1a2 8ebd 4e40 8b3d d281 853d
00000130: adc6 7f3d ddb5 0b3d 7b7c b2bc 67cd f9bb
00000140: 3828 77bd 7122 79bd ba81 7abb 3709 feba
00000150: 10b5 2a3d ff74 b4bc 7327 ccbc b2a7 203c
00000160: b115 373d 48b7 913d 706e 8abc 53d0 a53c
00000170: f3aa e93c a1c6 8b3d 57dc 903d 1d24 bcbb
-0.04652354 -0.008261046 -0.008922772 0.005815093 -0.056411766 0.061859034 0.0423084 -0.02158607
0.069402516 0.00010979233 -0.037180036 -0.06800944 -0.031058656 0.014303594 0.042368144 -0.04816307
-0.014733952 -0.03799646 0.0066425772 0.034739234 0.049542323 0.0668795 -0.067007884 -0.056451518
0.00922403 0.07063616 0.0061766403 0.06950092 -0.034055285 0.06499055 0.0026084392 0.059650823
-0.03760951 -0.05726702 -0.04143933 0.0002177907 0.020832792 -0.03695963 -0.0316511 -0.06409261
-0.037804138 0.010640353 -0.0061204256 0.018865315 0.06876144 0.013001657 -0.001876191 -0.054770567
0.016738506 -0.012091014 0.036503118 0.071451664 0.042431023 0.06031698 0.030488122 -0.01640608
-0.0046824855 0.035817493 0.025033094 -0.061767727 0.020763649 -0.02316199 0.04874175 0.059330497
-0.052806534 -0.0679823 -0.0035704223 0.049221143 0.014584803 0.010807525 0.0008360977 0.048885927
0.007151653 -0.069646485 0.067993745 0.06518902 0.06244533 0.034108985 -0.021787873 -0.007623363
-0.06034109 -0.06082386 -0.0038224296 -0.0019381408 0.04167658 -0.022028444 -0.024921155 0.009805607
0.04469842 0.07115036 -0.016898364 0.020240938 0.028523898 0.06824995 0.070732765 -0.0057416097
