GNN_FGSM/src/gnn_fp/model/ggnn_pmoo.pt (torch, 424364 bytes, 16 tensors)

weight f4 [96, 9]
000000 89 ac 37 be d6 b0 8a be b7 04 37 3d 39 af b4 3d
       -0.1793691 -0.2708804 0.04468223 0.088224836
000010 68 b4 9f be c9 61 5d be 4f 4e 82 3e b5 2b 2f 3e
       -0.31192327 -0.21619333 0.2545037 0.17106517
000020 bc db be bd 0d f8 b8 be 52 4d 1b be 84 55 42 3e
       -0.09319255 -0.36126748 -0.15166214 0.18977934
000030 71 e7 8a 3e cb 95 8e 3e 83 a1 4b be e0 cb b3 bd
       0.271297 0.27848658 -0.1988583 -0.087791204
000040 74 57 0c bd df 59 44 3f e7 34 5a be 1d 73 6b 3e
       -0.03426309 0.7669963 -0.21309243 0.22993131
000050 12 40 c1 bc 16 f9 13 bb c3 39 81 3d 5c 0b be bc
       -0.023590121 -0.0022578887 0.06309845 -0.023198776
000060 c5 97 ea bd c2 bb 8d bd 99 5c 7a be 22 b7 22 be
       -0.11454729 -0.069205776 -0.24449386 -0.15890172
000070 be 48 87 be 13 b2 03 bd 50 c4 27 be 68 e6 9c bd
       -0.26422685 -0.032152247 -0.16383481 -0.07661134
000080 8a b9 00 be 3c cf 74 be a5 ed 10 3e 1c 48 95 be
       -0.12570778 -0.23907179 0.14153154 -0.29156578
000090 df 9f 94 3c 12 eb fd 3d 01 94 66 3e 42 d8 98 bd
       0.018142639 0.12398352 0.22517397 -0.07463123
0000a0 1d 6b 6a 3e 29 2d a2 bc 5f 9a 35 3b 58 69 30 be
       0.22892423 -0.019796925 0.002771042 -0.17227685
0000b0 f9 90 e6 bd 72 5a d9 3e 5e ac 19 bd 9b e0 32 3d
       -0.1125812 0.42451817 -0.037517898 0.04367123
0000c0 78 88 18 be 18 f0 de be 7d f7 e4 bd 61 87 88 3e
       -0.14895809 -0.43542552 -0.11180017 0.26665786
0000d0 74 d9 dc 3d eb 2d de bd 7d 02 9d be e6 05 34 bd
       0.107836634 -0.10848602 -0.3066596 -0.043950938
0000e0 89 a5 6f be bb f0 f0 bd 7c 06 70 3e 37 ef 8c 3e
       -0.2340299 -0.11764666 0.23439974 0.27526256
0000f0 d8 2a 01 3d 6a df 6d 3e 2a 33 7d be dc bd 81 bd
       0.031535 0.23229757 -0.24726549 -0.06335041
000100 65 4f 14 be 1d 10 8c 3d de 94 e8 bd b8 aa 81 be
       -0.14483412 0.06839011 -0.11356519 -0.2532556
000110 4a 46 87 be 2a c6 4f 3e 9d 21 bf bd c2 db 8c bd
       -0.26420814 0.20290437 -0.09332583 -0.06877853
000120 8e f6 b4 bd cb b8 b6 ba bb c6 b9 3e f8 fd 9d 3e
       -0.08836089 -0.0013940571 0.36284432 0.30857825
000130 ca ed 64 bd 71 68 96 be 8b f1 2a 3e db e2 2f be
       -0.055890836 -0.29376557 0.16693704 -0.17176382
000140 27 25 87 bd 6a 76 ca 3e 9b 4c d3 bd f9 94 67 be
       -0.06598883 0.39543468 -0.10317346 -0.22615422
000150 ec bf 96 3e 4a dc c2 3d 1f a2 88 bc 29 2d e9 bd
       0.294433 0.09514673 -0.016678868 -0.11385567
000160 38 a2 06 be 8d aa 41 be fc 53 c6 bd 2d a7 82 3b
       -0.13147819 -0.18912716 -0.096839875 0.003987214
000170 a6 e1 68 3e 90 99 40 3e df c2 8e bd 16 c3 20 3e
       0.22742328 0.1880858 -0.069707625 0.1569942
000180 36 85 7e 3e 1b 01 46 be 71 3f 3e 3f 5b ff 2d 3e
       0.24855503 -0.19336359 0.74315554 0.16991942
000190 35 ed a3 3e 1e 22 2b be 4b dc 7f bd 1e 4f 53 3f
       0.32016912 -0.16712233 -0.062465947 0.825426
0001a0 65 90 43 3d 2f b7 85 be 6a dc 8e be da b8 2a 3d
       0.047745127 -0.2611632 -0.27902538 0.041680194
0001b0 66 d2 82 3e 55 de 4d be af db ae bd 05 41 9a be
       0.25551146 -0.20104344 -0.08537995 -0.3012773
0001c0 42 6b 59 be b6 fd 14 bd 37 ca 9c 3d 3d 00 3b 3d
       -0.21232322 -0.03637477 0.07655757 0.045654524
0001d0 ce 3f 9b 3e e5 6a c5 3c df 41 74 3c 8a 1b cf bd
       0.30322117 0.024098823 0.014908283 -0.101126745
0001e0 14 d9 15 3e 5d 97 01 3f 67 86 8e 3c 9b 30 a3 bd
       0.1463359 0.5062159 0.017398072 -0.07968255
0001f0 5e fe e6 3d 0b 5c 93 3e 16 05 53 be d1 3d bb 3e
       0.112789854 0.2878116 -0.20607409 0.365706
000200 f4 86 69 3d 24 3b 80 3e 90 d7 f2 be 49 50 03 be
       0.057013467 0.2504512 -0.47430086 -0.12823595
000210 59 59 54 be a6 ee 5f 3d 7e f5 2a 3f 54 93 50 be
       -0.20737208 0.054670952 0.6678084 -0.20368701
000220 b1 68 7e 3e 7a 0c 92 3d f8 9a 9d bd 56 cf 5c 3e
       0.24844624 0.07131286 -0.076955736 0.21563467
000230 a8 c0 62 3e 88 5c 6f be 88 39 36 be 88 24 6b be
       0.22143805 -0.23375142 -0.17795384 -0.22963154
000240 48 82 98 be 96 15 53 be 94 c8 3e 3e 3f 06 50 be
       -0.29786897 -0.20613703 0.18631202 -0.20314883
000250 94 f7 4d 3e d7 06 5a 3d 59 73 82 bd eb c3 af 3d
       0.20113975 0.05322918 -0.06369657 0.0858229
000260 3c 82 dc 3c 8c c9 72 3d 38 29 59 3e c2 6d 12 be
       0.02691757 0.05927424 0.2120713 -0.14299682
000270 0b fd e4 bd 6d 9a 29 3e 8e 4b 88 3e 95 7f 1f be
       -0.111810766 0.16562815 0.26620144 -0.15576012
000280 5e f0 d3 ba 0a 19 a1 3e a6 06 89 3e a3 97 3a be
       -0.0016169657 0.31464416 0.26762885 -0.18221907
000290 89 32 bc bd 49 a3 6e be be ea ae be 31 33 47 3c
       -0.09189326 -0.23304476 -0.3416347 0.012158201
0002a0 50 4f ee 3b 02 38 4e 3e cb 13 85 3e e5 e2 92 3d
       0.0072726384 0.20138553 0.25991663 0.07172183
0002b0 79 07 4f be 32 98 45 be 9d 6f 0b 3e 3c f8 a5 bd
       -0.20217694 -0.19296339 0.13616796 -0.081039876
0002c0 00 ae ed bd 1c 02 7a be 29 8d 14 3e f0 ef fc 3e
       -0.116054535 -0.24414867 0.14506973 0.49401808
0002d0 55 8b 40 3e 3a 28 c9 3e 7e 30 dd bd 7c b2 0d 3e
       0.18803151 0.39288503 -0.10800265 0.13837618
0002e0 52 c4 4e be 1a 85 5b bd c7 d4 bb bd 56 a3 9d 3e
       -0.20192078 -0.053593732 -0.091714434 0.30788678
0002f0 ed a7 9e be 2a 0f c8 3d a6 f9 26 3e 9d 0e 37 3e
       -0.30987492 0.09768517 0.16306171 0.17876668
000300 50 ec 63 3e a8 2d 42 3d 20 f8 84 be cc 57 45 3e
       0.22258115 0.047406822 -0.25970554 0.19271773
000310 7c c5 5b be 4e 5d 2c be b0 b3 85 be 32 db 4b be
       -0.21462053 -0.16832468 -0.26113653 -0.19907835
000320 08 6f 21 3e c4 fc 1d be 4b 7f 78 3e ee 86 0c 3e
       0.15765011 -0.15428454 0.24267308 0.13723347
000330 fc 82 a2 be ab 45 0f 3e a8 0c 1a be e8 7f 39 be
       -0.31740558 0.1399142 -0.1504389 -0.18115199
000340 8b 13 22 3b 2f 0f 88 3e e8 71 95 bd d1 fd 42 3e
       0.0024730887 0.26574084 -0.072971165 0.19042136
000350 0d 15 1f 3e f8 0b 07 3e 56 31 53 3e b2 0f 72 bd
       0.15535374 0.1318816 0.20624289 -0.059097
000360 b2 0e 0c be 85 bc 61 3e a5 6f a7 3e d6 0a 5b 3d
       -0.13677481 0.2204457 0.32702366 0.05347713
000370 29 d0 2f bf 5b f4 14 be 95 93 e2 bd 36 81 06 be
       -0.68677 -0.14546339 -0.11063305 -0.13135228
000380 5c 16 f9 bd d3 92 b6 3d 05 a0 f5 bd 79 96 d9 bc
       -0.12162468 0.08914723 -0.11993412 -0.026561009
000390 48 af 93 3e a3 d7 fc be fc 21 d9 3d 24 ee a4 be
       0.28844666 -0.49383268 0.10602185 -0.32212937
0003a0 24 95 5e 3d 33 08 37 be a0 55 62 3e b5 37 2c be
       0.05434145 -0.17874222 0.22102976 -0.16818126
0003b0 46 08 dd 3e ec 08 e8 be 5c 0d 3d bf 51 86 da bc
       0.43170375 -0.45319307 -0.7384851 -0.026675375
0003c0 bc 1e 3b be b7 f9 bf bb 2a a8 8f 3e 6e 22 a1 be
       -0.18273443 -0.0058586258 0.28057986 -0.3147158
0003d0 1f a5 92 be 02 de e3 bc ef 12 09 3e f7 fe 4d be
       -0.28641602 -0.027815823 0.13386129 -0.20116793
0003e0 1c e5 06 3e 1e c8 79 be 8f 34 8e 3e b5 81 94 3c
       0.13173336 -0.24392745 0.27774474 0.018128255
0003f0 90 6b 23 be 49 68 cd be 0b 26 9f 3e 5b 4d d7 3d
       -0.15959 -0.40118626 0.31083712 0.10512801

bias f4 [96]
000000 06 32 10 3e 03 54 38 3d 90 03 ae 3d 0e cc 1e 3e
       0.14081582 0.045001995 0.08496773 0.15507528
000010 48 e0 76 be ad c8 5c 3e 22 a9 a4 be a0 88 9a bc
       -0.24108994 0.21560927 -0.32160288 -0.018863976
000020 c2 77 b9 3d 3d c7 85 3e 41 b7 4f 3b ba a2 40 be
       0.09056045 0.2612857 0.0031694921 -0.18812075
000030 ed b9 9d be 40 d7 04 bd 7f 40 ad 3e 7a f0 a6 be
       -0.30805913 -0.03243184 0.3383827 -0.32605344
000040 95 27 87 bd ed 04 26 be 6d 3a 63 bd 40 7a 9b be
       -0.065993465 -0.16212817 -0.05547564 -0.30366707
000050 d3 a9 49 3e 27 7a 99 be c3 71 9a be 7a b9 28 be
       0.19693689 -0.29976007 -0.30164918 -0.16477004
000060 21 3d d2 3e fc 96 71 3d 68 0b 29 3e 33 65 9b be
       0.41062263 0.05898188 0.16508257 -0.30350646
000070 59 b9 e7 3e 9a 10 0b bd c2 6e 34 be 79 57 65 be
       0.45258597 -0.03395138 -0.17620376 -0.2239665
000080 c4 5f 37 3c 07 ed 77 bd c4 7a 06 be 77 86 b5 3e
       0.011192266 -0.06052878 -0.13132769 0.3545415
000090 c4 00 87 3e b6 41 09 3e 47 bd 8d 3d a7 ba 35 be
       0.26367772 0.13403973 0.069208674 -0.17746983
0000a0 69 4e 56 be e7 2a 88 be cf 52 2d be 21 37 ef 3d
       -0.20928349 -0.26595232 -0.1692612 0.11680437
0000b0 92 fb a3 3e 29 cb 0d 3d 48 00 47 be 9a 4a f0 3d
       0.3202787 0.034617577 -0.19433701 0.11732979
0000c0 d0 13 28 3d 2d 28 11 3e 9c b0 8b 3e 2d 83 99 be
       0.04103452 0.14175482 0.2728318 -0.29982892
0000d0 9d 98 90 3e 3e 2b 2b 3e 3e 8b e1 bd b1 fa ec 3d
       0.28241435 0.16715714 -0.110128865 0.11571253
0000e0 80 7d d5 3d c7 0a 78 be 37 35 da 3e 1d 0d 99 3d
       0.10424328 -0.24222861 0.42618725 0.07473204
0000f0 25 34 0d 3e f0 7d a5 bd 77 a2 ce 3d 2a 97 5b 3e
       0.13789423 -0.08080661 0.100895815 0.21444383
000100 14 6b b6 be a6 46 6a 3e a0 df 8d bd 40 16 3f 3e
       -0.3562857 0.22878513 -0.06927419 0.18660831
000110 a3 65 79 be b7 af 91 be 10 1b 3f 3e f9 bb 7b 3e
       -0.24355178 -0.28454372 0.18662667 0.24583425
000120 28 a2 88 3e b4 b4 00 3e bf c5 36 3c 4e 02 9d 3e
       0.26686215 0.12568933 0.011155545 0.3066582
000130 cb 78 02 3e b0 58 1b 3d ea 64 f9 3c 8a d3 5f 3d
       0.12741391 0.037926376 0.030443627 0.0546451
000140 0f 22 7b be 7e 2c 98 3e e5 0d 86 be c2 2b 54 be
       -0.24524711 0.29721445 -0.26182476 -0.20719817
000150 05 e9 82 3e 65 fc c7 bd d7 70 46 3e dd 68 dd bd
       0.25568405 -0.09764937 0.19378982 -0.10811017
000160 0e a9 18 3e 04 56 5f 3e da 57 0d be 08 45 02 bc
       0.14908239 0.21810156 -0.13803044 -0.007951029
000170 8e ba 87 be a9 8e e0 bd 64 5e 12 be a5 8b 89 3e
       -0.26509517 -0.1096471 -0.1429382 0.26864353

weight f4 [1, 96, 96]
000000 2d 4d e1 bd da 57 b9 bd 62 5c fb bc 22 f1 83 3c
       -0.11001048 -0.090499595 -0.0306837 0.016106192
000010 c2 fe b4 bd 39 41 31 bd e7 3c 16 3c d6 05 02 3c
       -0.08837654 -0.04327509 0.009169794 0.007935962
000020 4c bb 2d bd 17 00 98 bb 98 0e 70 3d 08 91 a2 3d
       -0.04241495 -0.0046386826 0.058607668 0.07937819
000030 a4 d6 6a bc ef 47 87 3d c8 62 cb bd 5e 4d cf 3b
       -0.014333401 0.06605517 -0.099309504 0.0063263616
000040 a0 41 2f 3d 93 09 90 3d 29 04 8f 3d 7e d8 98 bd
       0.042787194 0.07033076 0.06983215 -0.074631676
000050 0d 5e a2 3d 3e 81 30 3d b7 fa 87 bd 4d 7f d7 bc
       0.07928095 0.043092005 -0.06639617 -0.026305819
000060 25 40 6d bc 3e 0a 47 3d cc 22 bb bd 53 e3 68 bd
       -0.014480625 0.048593752 -0.09137496 -0.05685742
000070 18 d5 a4 bd fa 62 4b bd d5 50 fa bc fd a3 21 bd
       -0.08048457 -0.04965494 -0.030556122 -0.039463032
000080 e0 91 8c 3c 94 c4 c5 bd 8d b1 98 bd d3 69 9f 3c
       0.017159402 -0.09656635 -0.0745574 0.01945964
000090 8e 92 cd 3d e2 2d f8 3b 11 cd a9 bd 7d ea 0d 3d
       0.10037719 0.007573829 -0.082910664 0.034647454
0000a0 11 95 fa 3c 75 93 d1 ba f0 cf 45 3d 84 20 96 3d
       0.030588659 -0.001598938 0.048294008 0.073304206
0000b0 30 11 56 bd 09 ef 13 be b9 2f 11 bd f0 23 41 bb
       -0.052262485 -0.14446653 -0.035445902 -0.0029470883
0000c0 e6 50 74 3d 1a a4 e8 3a 40 ea 19 bd 8d 0e 67 3d
       0.059647463 0.0017749101 -0.037576914 0.05641036
0000d0 21 41 97 3d f8 1c c5 3a 3f 31 ac 3d d8 45 88 3d
       0.07385469 0.0015038541 0.084078304 0.06653947
0000e0 92 94 4d 3d a4 68 86 3b 3c 57 43 b9 5f c3 d8 bd
       0.050190516 0.0041018296 -0.00018629147 -0.10584139
0000f0 cd 29 c6 bd 08 ef 26 3d de 38 af 3d d7 15 ef 3c
       -0.096759416 0.0407553 0.085557684 0.029185219
000100 45 ff 6b bd 12 e3 19 3d 8a 8f ed 3d 56 5d da bc
       -0.05761649 0.037570067 0.115996435 -0.026655834
000110 97 e4 0c be ee 77 6c 3b 27 23 df bc f2 23 22 3d
       -0.13759075 0.0036082226 -0.027238442 0.03958506
000120 b6 ed 37 bd 83 94 06 3e d2 37 b6 3d 23 34 1c bd
       -0.044904433 0.1314259 0.08897366 -0.03813566
000130 9b 99 c0 3b 71 7a 7f bb 5b a5 96 bc b9 89 02 3d
       0.005877686 -0.0038982893 -0.018389395 0.031869624
000140 f9 69 37 3d 5a 2d c2 bd 39 e3 df 3c 12 df 91 3d
       0.044778798 -0.094813064 0.027330028 0.071226254
000150 fb 35 15 bd a1 5b 37 bc 56 6b a0 3d 90 f1 3e 3d
       -0.036428433 -0.01119128 0.07832973 0.04661709
000160 78 d2 8a 3d 3d 6f a3 bd a6 b8 4c 3c c8 e9 a9 bd
       0.06778425 -0.079802014 0.0124951955 -0.08296543
000170 c6 ff 23 b8 49 f5 d7 bd 00 ec f6 bd cc e3 54 bd
       -3.9100436e-05 -0.10544831 -0.12056732 -0.051975057
000180 ec 39 e2 3d 59 24 68 be 21 b4 ba bd 76 5f 89 3e
       0.11046204 -0.22670116 -0.09116388 0.26830643
000190 e7 71 1e be 77 ac 1f bc 41 73 3d bd 1d 88 9f bd
       -0.15473138 -0.009745709 -0.046252493 -0.077896334
0001a0 a0 2a 04 bd 98 e6 92 bb 0d 80 34 3e 7a 9f 4d bd
       -0.032267213 -0.0044830553 0.17626972 -0.050200917
0001b0 15 9e 95 bd 1d ae a8 3d 2c 99 f1 3d 62 c7 81 3c
       -0.073055424 0.082363345 0.11796793 0.015842143
0001c0 48 08 8b 3c 07 e7 48 bd 79 a0 ae 3d 3f 0c c9 bd
       0.016971722 -0.04904845 0.085267015 -0.09816789
0001d0 c6 c2 ec 3d 7c 82 9b bd 62 90 f9 3d 62 cd 5e 3d
       0.115605876 -0.07593247 0.12185742 0.054395087
0001e0 5f 73 ec bb ed 2e 39 3d da 66 ed 3d 14 6f 75 bc
       -0.0072159017 0.045210768 0.11591883 -0.014980096
0001f0 53 9e 28 be a2 65 1b bc 32 d2 d2 3d 7e 29 2f 3e
       -0.16466646 -0.00948468 0.10293998 0.17105672
000200 23 57 5f be dd 09 2e bb 07 56 fe bd fb 63 f8 bd
       -0.21810584 -0.0026556172 -0.12418752 -0.12128445
000210 9f bc 44 bd 01 17 9f bd cc f3 20 3e f3 d4 d3 bb
       -0.048031446 -0.077680595 0.15718001 -0.0064645945
000220 41 e4 5a bd 4a bc 87 bc ee 9a 97 3d 79 30 e0 bd
       -0.053440336 -0.016569275 0.07402597 -0.109467454
000230 1a 13 b1 bd fc e7 73 bc 2a 74 aa bd 02 d3 4e 3d
       -0.086462215 -0.014886852 -0.08322938 0.0504942
000240 57 01 bd 3d b8 14 b9 3d bc b5 3d 3e 7a 41 f8 3d
       0.09228771 0.09037155 0.18526357 0.12121864
000250 aa 33 e8 bd ae 57 79 be 37 55 da 3c 15 94 c4 3b
       -0.11337979 -0.24349853 0.026651962 0.005999098
000260 5d 5d a6 bd 55 1b 62 bc 0f 19 11 3e 33 80 49 bc
       -0.081232764 -0.013800462 0.14169715 -0.0122986315
000270 bc 0d fe bc 54 d9 96 3d 0a c4 e0 ba 39 3b d4 3d
       -0.031012408 0.07365671 -0.0017148268 0.10362858
000280 38 cb 03 3e de a9 bb bd 20 56 23 be b4 22 9a 39
       0.1287049 -0.09163259 -0.15950823 0.00029399025
000290 11 6a 3a 3e 2b c3 f5 3d 23 fd 57 3e d7 fa 9b bc
       0.18204524 0.12000116 0.21092658 -0.019040508
0002a0 4b de 76 bd 2a 59 b0 bd 67 ed 7c 3d 3d 6c 26 3e
       -0.06027059 -0.08610757 0.061749842 0.16252227
0002b0 73 82 15 bd bd 5c 5a 3c d4 e3 1a 3d 17 d9 85 3d
       -0.03650136 0.013327775 0.03781493 0.06535547
0002c0 1c 19 65 3a 02 13 80 3d 3d 56 56 3d 13 1d 1d 3d
       0.00087393983 0.062536255 0.052328337 0.038357805
0002d0 f6 81 ae 3d 94 f5 00 3d 5e c8 cf bd 61 5b 1f 39
       0.08520882 0.0314842 -0.10145639 0.00015197463
0002e0 d4 bb ac bd 39 1b 8f bd d8 0a a1 bd 0d 28 0c 3d
       -0.08434263 -0.06987614 -0.078633964 0.034217883
0002f0 d0 d9 e0 3c 82 d4 09 be f3 cf dc 3d 0c db 29 be
       0.027447611 -0.13459972 0.10781851 -0.16587466
000300 80 36 b9 3d f0 7d 23 3d 27 ca b7 bd 34 bc 56 bc
       0.09043598 0.039915025 -0.089741044 -0.013106395
000310 cb e6 b4 3c ee 68 e2 3d bd 36 2a 3c 14 24 24 bd
       0.022082707 0.1105517 0.010389027 -0.04007347
000320 d2 34 87 bc a3 bb 4d bd 50 95 2d 3d 22 a9 68 3d
       -0.016504679 -0.050227772 0.042378724 0.056801923
000330 1a ed 39 bd 1a 28 e8 bc b5 c1 20 bd 7e d8 eb bc
       -0.045392133 -0.028339434 -0.039247233 -0.028789755
000340 d5 79 43 ba 2e 08 0d bd 9c b3 76 3d 83 51 0d 3d
       -0.0007456814 -0.03443163 0.060229883 0.034501564
000350 ba a0 bf 3d 56 47 bb 3d 88 92 c3 bd 93 2f 5d bd
       0.09356828 0.091444656 -0.09549433 -0.05400045
000360 df d7 3d 3d 23 b9 c2 bd 8d 46 ec bc 19 09 8d bd
       0.04634845 -0.09507968 -0.028842235 -0.06886501
000370 98 38 b7 bd 62 c2 39 bc a5 55 d2 3d b1 61 39 3d
       -0.08946341 -0.011337848 0.10270242 0.04525918
000380 8d ad 04 be f4 ae 85 3d f9 3b 05 be f6 86 ba bd
       -0.1295683 0.0652751 -0.13011159 -0.09107773
000390 83 c6 2b bc 71 ed 1e bd 36 a8 a0 3d 03 e4 0c 3e
       -0.010484341 -0.03880066 0.07844584 0.13758855
0003a0 1c 54 e0 3c b7 e3 20 3d b5 a9 07 bd fa 64 9d bd
       0.027383856 0.039279666 -0.03312083 -0.076852754
0003b0 00 62 82 bd a8 87 45 bd 4b d5 aa bd 8c 87 8d 3d
       -0.06366348 -0.048225075 -0.08341464 0.06910619
0003c0 8d fa 09 bd d3 bd de bc a0 08 a6 3c a9 bf 80 3c
       -0.03368621 -0.027190125 0.020267785 0.01571639
0003d0 09 99 99 bd 93 53 9a bd 9b d3 0b bd 73 63 ef bc
       -0.07499892 -0.07535472 -0.03413735 -0.029222226
0003e0 1a 3f 0d bd 98 62 aa 3d f6 84 72 bd b5 3e c0 3d
       -0.034484006 0.083195865 -0.059208833 0.093869604
0003f0 3f 5e 00 3e ce 29 ee bd 71 8a 0e bc 9c 8a 68 3c
       0.12535952 -0.11629067 -0.008699999 0.014193203

weight_ih f4 [288, 96]
000000 7a ec 28 bd e4 7c 23 3d 43 7c c2 bd e3 aa 92 3d
       -0.041241147 0.039914027 -0.09496357 0.071615
000010 1b d8 f6 3c 1f bf 08 3d e9 a1 9b bc f1 fc 84 bd
       0.030132344 0.033385392 -0.018998103 -0.06493557
000020 d9 b7 68 bd b9 14 a0 3d fc 8c 87 bc 5d c7 b2 bd
       -0.056815956 0.078164525 -0.016546719 -0.08729432
000030 e9 85 7d 3d 14 10 a1 3d 75 ac be bc 51 a3 74 bd
       0.061895285 0.07864395 -0.023275593 -0.059726063
000040 a8 f0 89 bd 98 b0 03 3d fe b8 b3 bd 64 f0 80 bd
       -0.06735355 0.032150835 -0.08775519 -0.06295851
000050 b3 6b b0 3d a2 80 87 bd 66 84 ac 3d 84 98 76 3d
       0.08614292 -0.06616332 0.084236905 0.060204044
000060 e1 04 c9 bd 76 70 c5 3d c3 5a b1 bd 82 c6 99 3d
       -0.09815384 0.09640591 -0.086598895 0.075085655
000070 8e f1 a4 bd eb 48 8e 3d 1f 77 ad bd 3f a8 c0 bd
       -0.080538854 0.06947502 -0.08469986 -0.094070904
000080 8f 91 20 3d 13 df 8e 3d c8 1e cf bd f7 c8 a9 bc
       0.039201315 0.06976142 -0.10113293 -0.02072571
000090 6f 53 95 bd 8a 19 c5 bd 3d 23 21 3c 8b 6c 97 bd
       -0.07291304 -0.09624012 0.009835062 -0.0739375
0000a0 92 1d 25 3d 69 9b 74 bc a2 79 26 bd 7f 51 1e 3d
       0.040311404 -0.014929631 -0.04064334 0.03865194
0000b0 82 8b c4 bb 05 b2 cc 3c 4c dd 8b bd ea 18 c4 3c
       -0.005998076 0.02498723 -0.068293184 0.023937661
0000c0 44 48 61 bc d5 dc 88 3d 5f 49 b2 bd 2f 65 9d bd
       -0.01375014 0.06682745 -0.08705401 -0.07685315
0000d0 5c 43 cc bc f1 bc e3 bc 4f a8 51 3a 27 1e 02 3d
       -0.024934463 -0.027800055 0.0007997797 0.031767037
0000e0 82 64 4f bd 32 f2 99 3d 92 e8 f8 bc 62 ca ce bd
       -0.05063296 0.07516898 -0.030384336 -0.10097195
0000f0 f3 73 64 3d df f6 86 bd 3d 7a c9 3d 82 91 80 bd
       0.05577464 -0.06590056 0.09837768 -0.062777534
000100 38 c9 ad bd 22 d1 94 bd 89 17 ba 3d da c4 6f bd
       -0.08485645 -0.072664514 0.0908652 -0.05853734
000110 ff 7c 72 3d e4 ef 9d bd e3 8b cd 3d bd 1b 15 3d
       0.059201237 -0.07711771 0.10036447 0.036403406
000120 91 65 a8 3d 99 e7 43 bd 3d f5 f3 bc 21 13 a6 bc
       0.08222497 -0.04782829 -0.029780025 -0.020272793
000130 93 e4 c4 3d 97 7b 38 bd c2 56 5a bd cf 92 b3 3d
       0.096139096 -0.04503974 -0.053305395 0.08768236
000140 06 60 83 bd d2 65 a9 3c f1 d2 7e 3c b0 fd 33 3c
       -0.064147994 0.020678435 0.015553222 0.010985777
000150 cb be 52 bd 9a 4b c3 3d f2 cf 2a bc 3e a2 82 3d
       -0.051451486 0.09535904 -0.010425555 0.063786015
000160 8b 37 8a 3d dc c4 b3 3c 33 fe 92 bc 44 be d5 bc
       0.06748875 0.021944456 -0.017943477 -0.026091702
000170 31 a0 6a 3c eb 10 8a 3c 88 a1 58 bc 80 d2 32 bd
       0.014320419 0.01685377 -0.013222106 -0.04365778
000180 b2 d8 0f bd 61 27 06 bd 67 0a c6 3c 7c 64 58 3c
       -0.035118766 -0.0327524 0.024174882 0.013207551
000190 79 8b 93 3d 8e b5 a6 3d 9c 41 a5 bc 8b be c4 3b
       0.07204337 0.081400976 -0.020172887 0.00600416
0001a0 9d a0 a5 bc e2 ae b5 bd 8e e0 70 bd 8b 34 5e 3d
       -0.020218188 -0.08871247 -0.058807902 0.054249328
0001b0 72 a6 52 3d f5 c3 14 bd 1e 37 5f 3b a2 46 11 b9
       0.051428266 -0.03631969 0.0034059952 -0.0001385459
0001c0 54 5f 4a 3d 6f 15 18 bd 4c a5 85 3d 51 36 d2 3b
       0.04940732 -0.037129816 0.065256685 0.0064151664
0001d0 d1 3f 36 3c 48 b0 9f 3d 05 48 da bc 38 e6 1f 3d
       0.011123613 0.07797295 -0.02664567 0.039037913
0001e0 d5 82 fb 3c d1 63 fa 3c f0 86 93 3d 6d 73 6b bd
       0.030702034 0.030565174 0.07203472 -0.057483125
0001f0 57 55 45 3d af e0 5d bb 99 b7 f2 3c 90 b0 55 bc
       0.04817709 -0.0033855846 0.029628562 -0.013042584
000200 65 de 3a 3d 20 6c 46 bd 74 33 d3 3d 2d 16 fe bc
       0.04562225 -0.04844296 0.10312548 -0.031016434
000210 27 21 c2 3c f1 f3 52 bd ff f9 77 bd 8a 92 c6 3a
       0.023697449 -0.051502172 -0.06054115 0.0015149873
000220 e4 f2 b2 bd e4 44 91 bc 80 84 cc 3d 7d ce 9e bd
       -0.08737734 -0.017733045 0.0998621 -0.07754228
000230 f7 9c a6 bd 6d 03 f7 bd c4 1e ae bb 4a 43 95 bd
       -0.081354074 -0.120612 -0.005313726 -0.07288225
000240 5d 6f 20 bd a4 3d 85 3d 82 ed 5f bc bb f8 cd bd
       -0.039168704 0.06505898 -0.013667466 -0.10057207
000250 bf 8d 1c 3d d4 ea 80 b9 c7 60 40 3d b5 33 39 3d
       0.038221117 -0.00024589023 0.046967294 0.045215327
000260 0b 88 00 3d 19 a2 97 3c f0 84 b4 bd 86 37 22 bd
       0.03137974 0.018509911 -0.08814418 -0.039603733
000270 d3 de f1 bc 08 7b d5 bd 59 54 ca bd 06 1a 83 bc
       -0.029525196 -0.10423857 -0.09879369 -0.01600362
000280 bc 07 60 3d e0 67 56 bd bb e8 ac bd bf b5 92 3d
       0.054694876 -0.052345157 -0.08442827 0.071635716
000290 52 3f 91 bd 7a 23 e1 3d 3a 19 a3 bd eb 76 9f 3d
       -0.070921555 0.10993095 -0.07963796 0.07786354
0002a0 dc 4a 9c bc 17 a6 ec bd 57 ef 2b 3d b5 a9 b9 bd
       -0.019078664 -0.115551166 0.0419763 -0.09065572
0002b0 36 eb 19 3d 11 b0 de bd 5e 6e 9c 3d ea 3c cd bd
       0.03757783 -0.10873426 0.07638238 -0.10021384
0002c0 5e 20 31 3d 76 d8 b6 3d 8f 4c 06 bc f9 4d 8d 3d
       0.04324376 0.089280054 -0.008196964 0.06899638
0002d0 ad 16 f7 bc f3 63 b4 bd 01 63 85 3d a4 22 05 3d
       -0.03016218 -0.08808126 0.06513024 0.03250374
0002e0 1f d7 a9 3d 90 49 f8 3c 54 f8 45 bc f5 fa d1 bc
       0.08292984 0.030308515 -0.012083132 -0.025632361
0002f0 61 1f 11 3d a2 0c a5 bd bd f7 d3 3d 66 97 41 bc
       0.035430316 -0.0805905 0.10349987 -0.011815881
000300 0f 8b 44 bd a7 d0 95 3d 20 e1 c0 bb 8b 94 ed 3c
       -0.04798418 0.07315188 -0.005886212 0.029001495
000310 8a 63 2a 3c ab 49 a6 bd d2 8c 04 3d 00 f2 28 3d
       0.0103997085 -0.0811952 0.03236086 0.041246414
000320 b1 de a9 bd 85 6c 17 3d a8 31 33 3b d8 3b 8a 3c
       -0.08294428 0.036968727 0.002734283 0.016874239
000330 04 13 6e bd 15 07 85 bd 6b d3 95 3d 45 68 15 bb
       -0.058123603 -0.064954914 0.073157154 -0.0022797745
000340 7c 67 93 3d 16 c7 aa bb 9c 25 35 3d ea a7 53 3d
       0.071974725 -0.005211721 0.04422532 0.051673807
000350 e1 69 08 3c d0 4c 94 3c ea 4a 7b 3d 21 ed 3a 3d
       0.008326025 0.018103033 0.06135074 0.0456363
000360 e9 1b ad bd 62 a4 cb 3d 8e b1 8c bd ff 7a 26 bd
       -0.08452589 0.09943463 -0.06869803 -0.040644642
000370 15 36 85 bd a0 5a 8e bc 77 7d ab 3c cf 0b c2 bd
       -0.06504456 -0.017377198 0.02093385 -0.094749086
000380 0a 13 37 bd 2d 7c fd bc 17 2e f3 3c c4 f9 f7 39
       -0.04469589 -0.030943 0.029685063 0.000472976
000390 31 0a 31 3c 60 84 3b bd 31 2b 13 3d 73 b8 69 bd
       0.0108056525 -0.04578054 0.035929862 -0.05706067
0003a0 ba 7d b6 3d 23 b1 14 3d 74 01 6c bd 4c 88 80 3d
       0.08910699 0.036301743 -0.057618573 0.062759966
0003b0 12 0d a9 bd 03 5e 2a 3b fa 0e 12 3d e5 bd ae 3d
       -0.08254446 0.0025995977 0.035658814 0.08532313
0003c0 25 65 3b bd 4e 38 2e 3d fd ea 85 bc 0f 19 5a 3d
       -0.045750756 0.042534165 -0.016347403 0.053246554
0003d0 56 43 73 3d a8 a0 81 3b a4 b6 98 3d 78 99 5a 3d
       0.05939039 0.0039559193 0.07456711 0.053369015
0003e0 dc 14 b2 3d 2f 70 e9 3c bd 97 a1 3d 8e c7 a6 bd
       0.08695385 0.028495876 0.0789027 -0.08143531
0003f0 e2 2a 7d bd ea be 55 bd 0f d4 c5 bd 23 d2 9f 3d
       -0.061808474 -0.052184023 -0.096595876 0.07803752

weight_hh f4 [288, 96]
000000 22 ce 06 3d 2c 82 28 bd fa 57 9e bc c6 5a 24 3d
       0.032911427 -0.041139767 -0.01932906 0.04012563
000010 68 ec a3 bd 9b da 89 3d 8c c9 9c 3d 57 ce 9e 3c
       -0.08004075 0.06731149 0.076556295 0.0193855
000020 d2 e5 8d ba 12 c0 89 bd 87 b6 1d 3c 9b 4b bf bd
       -0.0010825938 -0.06726088 0.009626037 -0.093405925
000030 0b aa 19 bd a2 44 a1 3d ba b3 6d 3d fd 4d 8d 3b
       -0.03751568 0.07874419 0.05803273 0.0043122754
000040 ed 73 56 bd 24 14 84 3c 1b db b4 bd 67 fc 9e bc
       -0.05235665 0.016122885 -0.088308536 -0.019407464
000050 50 b1 56 3d 5f cf f5 3c bd 35 20 bd b8 ef 9e 3d
       0.052415192 0.030006109 -0.03911375 0.077605665
000060 af db 5c 3d ca 6a 4f bd df 29 a0 bd 07 00 8f bd
       0.053920444 -0.05063895 -0.07820486 -0.06982427
000070 c5 56 75 3d ee 16 d2 bd ea 1a c7 3d a2 6b 48 3d
       0.059897203 -0.1025828 0.0972193 0.04893077
000080 84 5a 93 bd 98 ee 2e 3c 6e 70 9a 3d 98 d5 04 bc
       -0.07194999 0.010677002 0.075409755 -0.008107565
000090 99 e2 fd 3c 0b a4 e7 3c cb 87 b8 3d 01 4c aa 3d
       0.03099184 0.028276464 0.090102755 0.08315278
0000a0 ef 11 2c bd 92 ae b8 3d ce 4e 98 bd 06 3f 63 bd
       -0.04200929 0.09017672 -0.07436906 -0.055480026
0000b0 79 19 63 3d 83 34 90 bc 76 34 9e bd 87 c8 a0 bd
       0.055444214 -0.017603165 -0.0772485 -0.078507476
0000c0 4d 00 a3 bd 4a 82 99 3c c1 df 0e 3d af ab 75 bd
       -0.07959042 0.018738884 0.034881357 -0.059978183
0000d0 24 1e bd 3b 77 92 b1 bb 7a 1e 9c bd c1 78 46 3d
       0.0057714153 -0.0054190713 -0.076230004 0.048455004
0000e0 63 46 9c 3d c9 92 ce 3c 65 f9 29 b8 f8 82 6f 3d
       0.07630613 0.025216477 -4.0525007e-05 0.05847451
0000f0 1d 60 a8 bc d9 75 c2 bd 37 51 3d bd 83 fe a4 bd
       -0.020553643 -0.09495134 -0.04622003 -0.08056357
000100 a1 ad 94 3d c0 c0 87 bd e0 28 21 bd 62 ea 92 3d
       0.072596796 -0.06628561 -0.039345622 0.07173611
000110 16 15 17 bd 2e c8 84 bd b3 21 90 3d 7e 46 74 3d
       -0.036885343 -0.06483494 0.070376776 0.05963754
000120 71 16 ee bc 2d 62 b4 bd fe c2 5f 3d d2 48 f1 3c
       -0.029063435 -0.08807788 0.05462932 0.029453669
000130 f9 fa 03 bd 1d 6f c8 bd 32 ba 71 3d 8d 74 3f bd
       -0.032221768 -0.09786818 0.05901546 -0.04674201
000140 ee a0 0c bd c3 a3 84 bd 67 0f 62 3d 47 d7 b4 3d
       -0.034333162 -0.064765476 0.05519047 0.088301234
000150 cf 82 a7 3d d2 25 44 bd 09 ae d0 bd db 97 b1 bc
       0.08179247 -0.04788763 -0.101894446 -0.021678856
000160 5a d0 b2 bd 15 8e f8 bc e1 82 62 3d 7d db a1 3d
       -0.08731146 -0.030341187 0.055300597 0.07903192
000170 33 b0 a6 bd 93 20 2e 3c 66 34 a6 bd 17 95 bc bd
       -0.08139076 0.0106278835 -0.08115463 -0.09208124
000180 db b1 ba 3d 49 13 96 bc 62 ff 49 3d f2 75 c8 bc
       0.091159545 -0.018319743 0.049315818 -0.024470303
000190 e9 9b 8b 3d 5d b9 5a bd a8 87 29 3d 35 72 24 3c
       0.06816847 -0.053399432 0.041389138 0.010036995
0001a0 82 85 34 3d fa 60 dd bc af e3 9f bd a8 fd 1d 3d
       0.044072635 -0.027023781 -0.07807099 0.038571984
0001b0 d7 92 16 3d fc 6f 34 bc 0b 1f dd bc 02 35 72 bd
       0.03676113 -0.011013027 -0.026992342 -0.059132583
0001c0 9d ae d6 bc 5f 0a c0 3c ef 61 aa 3d b1 0c dd 3c
       -0.026206309 0.023442445 0.083194606 0.02698359
0001d0 cf ff db bb 06 ae 18 bb 80 0f cb bd 73 a8 52 bc
       -0.0067138444 -0.0023297085 -0.09915066 -0.012857544
0001e0 58 03 0e 3d 45 46 cb bd 47 f8 70 3d fd 71 7a bd
       0.034671158 -0.09925512 0.058830526 -0.061143864
0001f0 d4 31 ab 3d ab 35 7d 3d aa 75 6b 3c 8a 13 d5 3d
       0.08359113 0.06181876 0.014371315 0.104041174
000200 f6 c4 a4 bd 06 7c 17 3c b9 cf 25 bd 93 a1 92 bd
       -0.0804538 0.009245878 -0.040481303 -0.07159724
000210 38 52 18 bd c5 ec 27 bc 72 5f a8 3d 91 11 4f bd
       -0.037187785 -0.010249321 0.0822133 -0.050553862
000220 a4 aa 8c 3c a3 2e 73 bc c1 06 d4 3c a5 c7 e7 bc
       0.017171212 -0.014842662 0.025882127 -0.02829344
000230 2a 4b b9 bd 11 15 82 3d 16 c3 97 3d 63 e6 14 bd
       -0.090475395 0.06351674 0.074102566 -0.036352526
000240 f7 06 35 3d 34 d7 7c 3d d8 43 9b 3c 70 b8 ee 3d
       0.044196095 0.06172867 0.018953249 0.116562724
000250 78 0b b4 bd 0b a4 84 3d 15 32 6c 3d 70 d7 ce 3d
       -0.0879125 0.06476601 0.05766495 0.10099685
000260 2b 9a 19 3d 8a 3d af 3d a3 50 21 3c 46 d3 a6 bd
       0.03750054 0.085566595 0.009845885 -0.08145766
000270 98 5e c7 bd 31 12 81 bb 4d 47 ac 3d de 09 87 3d
       -0.09734839 -0.003938936 0.08412037 0.06593679
000280 fa 93 49 bc 99 01 c5 bc 70 0a 9c 3d 34 68 09 bc
       -0.012303347 -0.024048613 0.07619178 -0.00838666
000290 de 0f 0a 3d 96 69 6a 3c c4 c7 0e bd 57 4e 77 3d
       0.03370654 0.0143074 -0.03485848 0.060377445
0002a0 38 ff cb 3d f4 08 25 3a 5b d6 46 3d 3f 50 a9 3d
       0.099607885 0.00062955846 0.04854427 0.08267259
0002b0 db 55 8f bc 95 b9 7d 3d f3 44 85 3d db f6 6f bc
       -0.017496994 0.061944563 0.06507292 -0.014646257
0002c0 dc 2d 98 3d d4 93 9f 3d f0 86 ce 3d 2f b6 c8 bd
       0.07430622 0.07791868 0.10084331 -0.09800374
0002d0 37 ed ed bc 16 d0 a8 3c 37 81 45 bd 74 12 c7 bc
       -0.029043777 0.020607036 -0.048218932 -0.024300791
0002e0 50 57 19 3d c7 a7 39 bd 4f eb 7d bd ba 97 fd bb
       0.037436783 -0.04532602 -0.061991986 -0.0077390345
0002f0 a2 b8 17 bc 7d 45 8d bd 63 82 77 3d ef ee d8 3d
       -0.0092603285 -0.068980195 0.06042708 0.10592448
000300 53 37 fb 3a bc 80 d3 3c d5 dd c9 3d fd e6 96 bd
       0.0019166268 0.025818221 0.09856764 -0.07368276
000310 fe 2a 8f bd 80 f8 b9 bd 15 bc ae 3c 97 bb 96 bd
       -0.06990622 -0.09080601 0.021329919 -0.07359999
000320 69 0c cd bd 59 9c 92 3d ad ae ce bd b8 35 95 3d
       -0.10012133 0.07158727 -0.100919105 0.07285637
000330 c7 88 95 3d 5d 5b d1 bd 48 ea 03 be 59 65 f9 bc
       0.07301479 -0.10222504 -0.1288234 -0.030443834
000340 31 72 be bb 10 84 87 bd e8 9b 83 3d 8d d0 c5 bb
       -0.0058119525 -0.06616986 0.06426221 -0.006036824
000350 77 26 c2 bd 66 4c ea bb 92 1f 77 3d 15 4f 6b 39
       -0.09479993 -0.0071502207 0.060332842 0.00022440807
000360 6f c3 02 bd 44 74 22 bd 28 f5 a9 3b 8b aa fa bc
       -0.03192466 -0.03966166 0.0051866956 -0.0305989
000370 4a 4b 91 3d 86 fa 69 3d 60 c5 5c bd 62 4d cf bd
       0.070944384 0.057123683 -0.05389917 -0.101221815
000380 03 f3 31 bd fb 2b 1d 3d e9 3a a8 bd dd cc b1 bd
       -0.043444645 0.03837202 -0.08214361 -0.08681653
000390 93 f9 c3 3c 5c e8 62 3d 4d a4 56 3d 48 4a 9b 3d
       0.023922717 0.055397376 0.052402783 0.075825274
0003a0 cc 81 0e bd fb 36 5a bc 9f 74 ab 3c 42 5c af 3d
       -0.034791753 -0.013318772 0.020929633 0.08562519
0003b0 03 52 07 3d 76 68 c2 bd 05 2c 32 3d 85 1f 9c 3b
       0.033037197 -0.094925806 0.04349901 0.0047644996
0003c0 eb 07 64 bd 03 50 88 3d ce a4 c2 bd 79 a1 a1 3d
       -0.055671614 0.06655886 -0.0950409 0.078921266
0003d0 6b f5 88 3d 01 4e c7 3c e8 1b d9 3b ff 8d a9 bc
       0.06687435 0.024329187 0.006625641 -0.020697592
0003e0 fe 08 be bd 40 bb 42 3b d3 b3 3c 3d 3f f0 c2 bd
       -0.09279059 0.002971366 0.04606993 -0.095184796
0003f0 50 48 ad 3d 46 4e c0 bd ec 8a 8c 3d bf cf 8f 3d
       0.08461058 -0.093899295 0.06862435 0.07022046

bias_ih f4 [288]
000000 db 64 1b bc bb 1f cc 3c d9 0b 94 3d b3 a2 57 3c
       -0.009484495 0.024917474 0.07228822 0.013161349
000010 b6 d2 a4 3b 71 17 75 bd aa 4f c7 3d b2 b4 e0 bc
       0.0050300015 -0.05983681 0.097319916 -0.027429912
000020 23 40 35 bc a2 0a 9e 3d 60 15 5b 3d c4 65 01 bd
       -0.011062655 0.07716872 0.05348718 -0.031591192
000030 2b 6d bb bd 56 51 4f bc 26 0f db 3d ee c2 2c bd
       -0.091516815 -0.012653669 0.10696249 -0.042178087
000040 a0 48 c9 3d 85 50 c0 3d 0e f9 88 bd f7 7c d8 3d
       0.09828305 0.09390358 -0.066881284 0.1057071
000050 82 53 8b bd b1 91 ee bc 79 86 76 3c c2 78 1d bd
       -0.06803037 -0.029122205 0.015046709 -0.03844524
000060 7d 80 da 3d 8c 97 d2 3c a9 30 cf 3d f9 8a 3e 39
       0.106690384 0.025707029 0.10116703 0.00018171583
000070 48 4f 3b bd ef 04 9c 3c 7e bc ad bd f4 fb 84 bd
       -0.045729905 0.019045321 -0.08483218 -0.06493369
000080 ee 21 29 bd cf 1a d5 bb 9e 40 c2 3d fa cc da bc
       -0.041292123 -0.00650344 0.09484981 -0.026709069
000090 02 8c 3f 3b 6d f6 96 3d 7f 9e 4e 3d 59 67 7d 3d
       0.0029227738 0.07371221 0.050444122 0.061866138
0000a0 6f 57 be 3c 6e d5 ce bd 51 6f 9c 3d 17 ca c5 3b
       0.023235051 -0.10099302 0.076384194 0.006036054
0000b0 a1 73 bd 3d 61 12 d8 bb 6c 47 c5 3d 48 e4 6e 3d
       0.0925057 -0.006593988 0.09632763 0.058323175
0000c0 91 5b 79 bd 9f 5e 5e bd da 7e a7 bd 39 e2 90 3d
       -0.06087834 -0.054289456 -0.08178492 0.070743985
0000d0 5b de 35 3d 22 e4 a5 3c 07 10 b8 3d af 9a d0 3d
       0.044401508 0.020250384 0.08987432 0.101857536
0000e0 81 00 6f 3c c5 8d 97 bd 6d 51 d6 3c 41 17 d4 3d
       0.0145875225 -0.07400087 0.026161874 0.10355998
0000f0 a1 0d 32 3d 35 25 c6 3d ab 54 ab 3d 82 08 3c 3d
       0.04347003 0.096750654 0.083657585 0.04590655
000100 1c 20 17 bc 24 fb 69 3d ed 16 ea bc b6 c4 a2 bd
       -0.009223964 0.057124272 -0.028575385 -0.07947676
000110 e6 f1 15 bd b1 df cf bb cb a3 87 3d bf 3a f2 bc
       -0.036607645 -0.0063438048 0.06623038 -0.029569028
000120 de b6 56 3d d8 2d 0d bd d1 b5 c1 3d e5 6c ce bd
       0.05242049 -0.034467548 0.09458507 -0.10079364
000130 e5 60 93 bd 79 a7 7c bd 4c 0a 96 bd 65 3a e0 3d
       -0.071962155 -0.061683152 -0.07326183 0.10948638
000140 14 5c c4 3c d8 5f 06 bc 31 7e 87 3d 42 b7 ab 3c
       0.023969688 -0.008201562 0.06615866 0.020961408
000150 a0 bd 01 bd 1b 74 9c bd 0d 34 a1 3d 41 bf f7 bc
       -0.03167498 -0.07639333 0.07871256 -0.030242564
000160 44 9c 56 3d ed 6d 28 bb 72 21 fc 3c 3e 20 9d 3d
       0.05239512 -0.0025700286 0.030777667 0.07672165
000170 f8 73 86 3d 5e 80 8e bd e3 c3 d7 bc 35 15 29 3d
       0.06565088 -0.06958078 -0.026338523 0.04127999
000180 80 21 b4 bc 73 80 0a 3e 68 3a 89 bd f5 4a 3e 3d
       -0.02198863 0.13525562 -0.06700593 0.046458203
000190 a0 6a 56 bb 40 79 fb 3a 8e 1f 86 3b fb df a0 3d
       -0.0032717362 0.0019185916 0.004093117 0.07855221
0001a0 f5 78 9b 3d cf 99 81 3d ef 9e ca 3c d9 b9 8f 3d
       0.0759143 0.06328165 0.024733989 0.070178695
0001b0 f7 3e 98 bd cc 30 ae 3d 4b 4a f0 3e 77 8d 06 bc
       -0.074338846 0.08505401 0.4693168 -0.008212439
0001c0 00 2e 5f bc 59 b3 94 3c f6 1b 05 bd fc 56 80 bd
       -0.013621807 0.018151926 -0.03249737 -0.06266591
0001d0 f7 7b 0b 3d 21 95 91 3d 40 f8 08 3d 20 1d 90 bc
       0.03405377 0.07108522 0.033439875 -0.017592013
0001e0 50 00 24 3d eb 0f 05 bd ac bd 4d 3d 9b 8f e0 3c
       0.04003936 -0.032485884 0.050229713 0.027412226
0001f0 5d a3 ec 3b a9 3d 37 bc d1 71 8e bd c1 d3 91 bd
       0.007221623 -0.0111841345 -0.069553025 -0.07120467
000200 76 0b 9a 3c f8 80 16 3e f2 3d 90 bd 98 fb 4e 3e
       0.018804293 0.14697635 -0.07043065 0.20213163
000210 7b 58 6f 3d de 7c a9 3d 8f 75 0e bd a7 80 82 3c
       0.05843399 0.0827577 -0.03478008 0.015930487
000220 c6 67 67 3d 35 7e c9 3d b2 be 67 bd 99 82 20 3d
       0.05649545 0.09838525 -0.056578346 0.039187048
000230 60 1f 0e be 32 e3 55 bd b1 74 e7 bc a5 b9 90 3d
       -0.13879156 -0.052218623 -0.028253885 0.07066659
000240 46 24 ed 3c 1d 3f 21 3e ce c9 28 bd 18 18 75 bd
       0.02894796 0.15746732 -0.04120808 -0.05983743
000250 b9 07 2f 3d e1 13 ad 3e 05 23 f7 bd 42 12 0b 3c
       0.042731974 0.3380423 -0.12067226 0.00848824
000260 a3 0b ad 3d 90 8d 3f bd 84 d8 d0 3d dd d1 47 bc
       0.08449485 -0.046765864 0.10197547 -0.012196031
000270 88 68 aa bd 9e 22 81 bd 84 7a cf 3d f7 c7 04 3d
       -0.08320719 -0.06305431 0.1013079 0.032417264
000280 d7 53 86 bd f4 6f a5 3c b6 28 50 3d c0 f7 61 bd
       -0.0655896 0.020194985 0.050820075 -0.055167913
000290 c9 02 73 bd 3d 3e ca 3c 8b bf 4a bd ac a3 e9 3a
       -0.059328828 0.02468788 -0.049499076 0.0017825267
0002a0 3e 30 9e 3b 7c 17 39 bd 77 0c d7 bd 9e 1f 90 3d
       0.0048275283 -0.045188412 -0.10500424 0.070372805
0002b0 95 dd 8f bd 42 8f be 3c 0a fe af bc 24 fa d5 bd
       -0.07024685 0.02326167 -0.02148344 -0.10448101
0002c0 64 02 f6 3d e8 a5 56 3c 5c 73 c6 bd 36 1e 67 bd
       0.12012175 0.013101079 -0.09689972 -0.056425296
0002d0 e2 a6 6b bd 64 d4 31 3e 0c dd 06 3d a9 1e c4 bd
       -0.0575322 0.17366177 0.03292565 -0.095761605
0002e0 07 36 aa 3d b5 d9 ac bd ad df b1 bd 4f a3 c7 bc
       0.08311086 -0.08439962 -0.08685241 -0.024369864
0002f0 1a d2 a9 3c 7c 00 1d 3d 12 f1 82 bd d0 da 3c bd
       0.020730067 0.03833054 -0.06393637 -0.046107113
000300 44 71 f7 bd 2e 20 89 3d af 0c 36 3d c9 0f 06 3c
       -0.120821506 0.06695591 0.04444569 0.008182474
000310 25 4a a1 bc bd e3 2f 3c 02 68 f6 3d 6c 95 43 bd
       -0.019688675 0.010735449 0.12031557 -0.04774992
000320 14 12 0a 3d 96 45 ac 3d 6b e6 b1 3c f5 ad a3 bc
       0.033708647 0.0841171 0.021716317 -0.01998041
000330 b2 33 a3 3d 71 df 0c be a7 7a b6 bd 61 d2 87 3d
       0.079688445 -0.13757111 -0.08910113 0.066319235
000340 1f fd 76 bc 3f 65 2d be 4d 18 9e 3c c5 86 76 bd
       -0.015074997 -0.16933154 0.019298697 -0.06018712
000350 26 2b b0 3b ee 25 01 bc 5c 44 05 be ef 58 1d 3d
       0.0053762374 -0.007882578 -0.13014358 0.03841489
000360 3d e2 33 bb 38 ad 80 bd 93 be 4c bd fc 76 48 bd
       -0.002744808 -0.06283039 -0.049986433 -0.048941597
000370 05 69 0d 3e 72 c5 22 be d5 c7 91 bd 73 08 3c 3e
       0.13809593 -0.15895632 -0.07118193 0.18362598
000380 28 52 09 3c 48 1c 2f 3e 2e e5 fb 3c b0 10 89 3e
       0.008381404 0.17100632 0.03074893 0.26770544
000390 7d 98 f8 3d c0 88 92 bd 42 a2 ba 3d 03 16 62 3d
       0.1213846 -0.07154989 0.091129795 0.055196773
0003a0 80 1d 69 3d 83 f7 a2 bd 57 13 b8 bd 0e 42 fe bd
       0.0569129 -0.07957365 -0.08988064 -0.12414943
0003b0 0c c8 10 be 4f 21 e7 bd b2 be 0d be 7a 56 81 bd
       -0.14138812 -0.1128565 -0.13842276 -0.06315322
0003c0 ab 5e 54 3d 93 c4 09 be b5 7e e6 3d fa 97 94 bd
       0.051848095 -0.13453893 0.11254636 -0.0725555
0003d0 c7 99 d4 bd ac 5c 36 3b ee a4 e6 ba 1e 3e 25 3e
       -0.10380893 0.0027826233 -0.001759676 0.16136977
0003e0 2f 01 5f bd b3 67 cc 3d 55 b2 7a 3e 7d 18 31 3e
       -0.05444449 0.099807166 0.24482091 0.17294498
0003f0 33 3a ab bd 6d 9e 3f 3e 5e f4 69 bd 14 59 49 bd
       -0.0836071 0.18712778 -0.057117812 -0.049157217

bias_hh f4 [288]
000000 f2 cd bd bd f0 30 66 3d ef 62 8a bd 75 cb d5 bd
       -0.092677966 0.056199014 -0.06757151 -0.10439197
000010 c1 a6 85 bd 09 bc fd 3b 5d 75 ff bc fc a9 83 bd
       -0.065259464 0.007743363 -0.031183893 -0.06428906
000020 eb 87 b5 3d 5c 91 6c 3d df d4 88 3c 3d 9c 80 3c
       0.08863815 0.057755813 0.016703067 0.0156995
000030 97 c0 da 3b ff 1b 1a bd 18 2e 6d 3c 60 ad 9d 3c
       0.0066757905 -0.037624355 0.014476322 0.01924771
000040 af 35 e3 bc 01 1a 42 3d 7e 3e 55 3d b2 59 b6 bd
       -0.02773556 0.04738808 0.05206155 -0.08903827
000050 35 3a d0 3d d3 17 b5 3d 02 65 15 bd b4 fe 04 3d
       0.10167352 0.08842435 -0.03647328 0.032469466
000060 1e 98 0c 3e a9 b3 92 3d 7c d7 57 bd 3c a3 eb 3c
       0.13729903 0.07163174 -0.052695736 0.02876436
000070 a1 5b c9 bd 88 ee d5 3b c2 0b a2 bd ba 2d f1 3d
       -0.0983193 0.0065286793 -0.07912399 0.117763
000080 8c 35 bc bd f6 5f b0 bd 69 1e 58 bc 92 62 97 bd
       -0.09189901 -0.08612053 -0.013190844 -0.07391848
000090 d8 52 ca bc c4 db 95 3d c7 a6 45 3d 94 7c 43 3d
       -0.024697706 0.073173076 0.048254754 0.04772623
0000a0 05 3d 7f bd 5a 82 9b bd 43 fb 80 bd ed 52 55 bd
       -0.062314052 -0.07593222 -0.06297924 -0.052081037
0000b0 88 b3 0f bd fb 01 5a 3d e1 d1 f0 3c 36 10 c5 bd
       -0.035083324 0.053224545 0.029396953 -0.096222326
0000c0 1f 2c a1 3d eb d6 87 3d 81 5e 85 bc c3 fe c0 3d
       0.078697436 0.06632789 -0.016280415 0.09423592
0000d0 0a 73 8c bd 26 1b 16 3d 46 84 11 3c 34 4f a8 bd
       -0.068578795 0.036646985 0.008881634 -0.08218232
0000e0 e6 92 7e 3d 42 c7 61 bd 2a ca e9 3d 83 c2 5f 3d
       0.062151812 -0.055121668 0.11415513 0.05462886
0000f0 ab 8b b1 bc 84 7d 46 3d 5b 03 36 3d 75 ae b9 3c
       -0.021673044 0.048459545 0.044436794 0.022666195
000100 a0 02 80 bd ce 59 9f 3d ce 83 cb bb 50 dd 5b 3d
       -0.06250501 0.07780801 -0.0062107807 0.053677857
000110 d0 86 02 3d 8c dc 93 3d c5 7c 42 bb af 62 10 bc
       0.03186685 0.072198 -0.002967642 -0.0088125905
000120 1f 6d 9e bd 96 56 b2 3d 41 23 20 3d 74 6a 08 bd
       -0.07735657 0.08707921 0.03909612 -0.033304647
000130 be ef d1 3d b1 1b fa 3b 7a a1 b9 3d c7 be b6 bd
       0.10250805 0.0076326956 0.09064002 -0.08923107
000140 36 6e 43 3d 83 11 4c bd 73 dd 7f bd 86 dc cd bd
       0.047712527 -0.049821388 -0.06246705 -0.10051827
000150 45 2d ae bd 8a a1 75 3d b4 99 bc bd cb 2a dc 3c
       -0.08504728 0.05996851 -0.09209004 0.026875874
000160 5d 22 4d bb a4 2a 16 bc c2 db 28 bd 72 87 fc bc
       -0.0031301 -0.00916544 -0.041225202 -0.030826304
000170 16 a2 08 3d 90 ef a7 3d dd 47 4d 3d d6 d8 44 bd
       0.033357702 0.0819999 0.050117362 -0.048058353
000180 46 1d 0f bc b6 24 66 3c f5 00 cd bd a0 dc 71 bd
       -0.008735007 0.0140468385 -0.10009948 -0.059048295
000190 e6 a5 3c bc 79 5b c4 bd 46 29 90 3d 53 14 fb bc
       -0.011514163 -0.095877595 0.07039122 -0.03064934
0001a0 11 6c be bd db 80 8c bd 3d 76 52 bd 61 59 fb 3d
       -0.09297956 -0.06860515 -0.051382292 0.12272907
0001b0 3c e9 e7 3d 45 d4 d5 3a 50 59 bc 3e 75 57 fa 3c
       0.11323783 0.0016313872 0.3678689 0.03055928
0001c0 bc fc 8d 3d 24 2e 24 be ea 4b d0 bd a3 72 92 3d
       0.06932971 -0.16033226 -0.101707295 0.071507715
0001d0 47 16 57 bd 5f 9a d1 bd 2e de 7c bc 37 e0 84 3d
       -0.05251148 -0.10234522 -0.015433831 0.06488078
0001e0 a1 50 d1 bc 77 95 29 3c 79 ef f1 3d b9 54 30 bd
       -0.025551142 0.010350577 0.11813254 -0.043049548
0001f0 7c 67 15 3d cb 31 06 be 0f c3 40 3d e8 14 c8 bd
       0.036475644 -0.13104932 0.047061022 -0.097696126
000200 de b6 ac bd 0b 73 4f 3d c8 ee 97 3d c2 fc 4c 3d
       -0.08433317 0.050646823 0.07418591 0.050045736
000210 94 74 04 3d 01 ac ec 3d 1b a2 01 3d 20 24 9e ba
       0.03233774 0.11556245 0.031648736 -0.001206521
000220 c1 31 55 bb 5a 93 f1 bc d9 52 a6 bd 24 a7 54 3c
       -0.0032530876 -0.029489208 -0.08121271 0.012979303
000230 83 7b a1 3c 20 18 37 3d 28 09 a0 3b 2e 71 a3 bc
       0.019712215 0.04470074 0.004883904 -0.01995143
000240 be 3c 95 bd 1d e2 32 3d dd a3 a7 3c f5 24 3c bc
       -0.07286976 0.04367267 0.020463878 -0.011483421
000250 a7 9c 2c 3d c0 c8 a6 3e e1 f5 0c bd c1 61 47 3d
       0.042141583 0.32575035 -0.034414176 0.04867721
000260 e4 e3 6b bc 56 e0 9b 3d b2 ea 8c bd 64 8d de bd
       -0.014397595 0.07611148 -0.06880702 -0.10866812
000270 05 2b d3 bd 4b 58 92 3c 12 9c 30 bd be 32 2b 3d
       -0.1031094 0.017864367 -0.04311759 0.04179644
000280 f4 9e 56 39 ee fd c6 3c c2 75 15 3d bd df 9c bb
       0.00020467845 0.024291005 0.036489256 -0.004787414
000290 2e 9d 5a bc b8 c8 d2 bd 69 db 77 3d fa 42 b6 bd
       -0.013343139 -0.1029219 0.06051198 -0.088994935
0002a0 46 aa 9d 3d 17 d4 60 3d 2d d2 94 3d ec fd d6 bd
       0.07698493 0.054889765 0.0726665 -0.104976505
0002b0 38 d5 8a bc 92 c9 1c bd 88 f3 82 3d c8 ae 26 3a
       -0.016947374 -0.03827817 0.06394106 0.0006358442
0002c0 73 d2 a6 3c ea 55 67 bd e6 10 39 bd b7 be ac 3d
       0.020364022 -0.05647842 -0.04518213 0.084348135
0002d0 e6 f0 ae 3d 2c 1b ba 3d e5 b1 16 bc d1 ab 02 3d
       0.085420415 0.09087214 -0.009197687 0.03190214
0002e0 3e 66 1a bd a4 86 dc 3d 75 ab da bd f8 e2 de bd
       -0.037695162 0.10767868 -0.10677234 -0.108831346
0002f0 2e 28 20 3d b3 6e bb bb 7c 5b d1 bc 90 c0 d6 3d
       0.03910082 -0.0057199835 -0.025556318 0.10485947
000300 df e2 1a bd ef e7 42 3d e6 d1 75 3d d6 5f 79 bc
       -0.037814017 0.04758447 0.060014628 -0.015220603
000310 ac e2 02 bd 63 6a b1 3c 6c 32 92 bd 47 89 d5 bc
       -0.031954452 0.021657174 -0.071385235 -0.026066436
000320 22 58 bb 3d ca 8c 3e bc 41 2b 26 bc ea cd 4e bd
       0.091476694 -0.011630246 -0.0101421485 -0.050489344
000330 44 21 23 3d 70 13 cd 3c 1e 32 d5 bd 84 e5 29 3c
       0.039826646 0.025033683 -0.1040995 0.010369662
000340 b7 3d 0a 3d 4f f9 e0 bd ba de 68 3c 21 63 88 bc
       0.033750262 -0.10985052 0.014213258 -0.01664883
000350 64 72 20 bd fa ea c2 3d c1 33 16 be 16 6f d5 3b
       -0.03917159 0.095174745 -0.1466818 0.0065134866
000360 d6 50 6f 3d b3 b2 7a 3d a2 2a 7b bb cf 1d 9b bd
       0.0584267 0.061205577 -0.0038324972 -0.07574045
000370 8e d9 e5 bb 12 8a 18 3d 49 f4 b1 3d 7a 05 f7 3d
       -0.00701446 0.03724105 0.08689172 0.120615914
000380 b0 34 2b 3d a3 8a 6b 3d 0d db e5 bc ec 48 19 3e
       0.041798294 0.05750526 -0.028058553 0.14969224
000390 a2 5b af 3c b2 b9 1e be c7 fd c7 bb eb 40 41 3d
       0.021405999 -0.15500525 -0.0061032507 0.04718105
0003a0 26 59 5b bd f1 3f 8f 3d eb 20 99 3d 07 d1 ae 3d
       -0.053551815 0.06994618 0.07476982 0.085359626
0003b0 8e 7b 39 be da 3a bf 3c 90 b5 0b 3d e3 c9 64 bd
       -0.18113539 0.023343492 0.0341087 -0.055856597
0003c0 0b 68 ba bd 26 47 8c 3d 20 27 92 bb eb 2d 82 3c
       -0.09101876 0.06849508 -0.0044602305 0.015891036
0003d0 48 45 78 3d 44 b1 07 be 9f c5 ac 3a 74 eb 91 bd
       0.060612947 -0.13251215 0.0013181454 -0.07124987
0003e0 5a e8 71 3d 42 91 a6 3d a5 28 50 3e 0c db 17 3d
       0.05905948 0.081331745 0.20328005 0.037074134
0003f0 89 91 be bc 01 5d 0e 3e 1b 42 23 bd 59 fd c5 bd
       -0.023262756 0.13902666 -0.039857965 -0.09667463
